EDA/Notebooks/deep_learning_models/DR_models/CNN/cnn(PCA)_portfolio_model.pth (torch, 250453 bytes, 9 tensors)

conv1.weight f4 [64, 7, 3]
0	0x3d3d95bc	0.046285376
1	0x3ce4d505	0.027933607
2	0x3b908d1e	0.0044113537
3	0xbe30c173	-0.17261295
4	0x3d8222bb	0.063542806
5	0x3de94841	0.113907345
6	0xbc94c407	-0.01815988
7	0x3dfb43c3	0.12268784
8	0xbe061a82	-0.1309605
9	0xbdf6ceb2	-0.12051143
10	0xbe4510de	-0.19244716
11	0xbc99ac1a	-0.018758822
12	0xbe068fa1	-0.13140728
13	0x3d34ec4a	0.044170655
14	0x3d83655a	0.06415816
15	0xbd94dade	-0.07268308
16	0xbe27b294	-0.16376716
17	0xbd8ed62b	-0.06974443
18	0x3e3fa989	0.18717016
19	0x3d93c3a8	0.07215053
20	0x3e1cfe10	0.15331292
21	0x3d929d41	0.071589
22	0x3e4d23ba	0.2003316
23	0x3e4ed520	0.20198488
24	0xbdb094b2	-0.086221114
25	0x3e75d5df	0.24007367
26	0xbd6a7512	-0.057240553
27	0x3cf9afef	0.0304794
28	0xbd0c80c2	-0.03430248
29	0x3e26b9e9	0.16281857
30	0xbe1c0c55	-0.1523908
31	0x3d580236	0.052736484
32	0xbe2b7a7e	-0.16745946
33	0x3e50621a	0.20349923
34	0x3d58e41d	0.05295192
35	0xbdaa1776	-0.08305256
36	0xbd84a003	-0.06475832
37	0xbe08e73c	-0.13369459
38	0xbe0230cf	-0.12713932
39	0xbd25bfea	-0.040466227
40	0xbd531ec2	-0.051543005
41	0xbe808d03	-0.25107583
42	0x3d77a477	0.06045958
43	0xbe1f03ef	-0.15528844
44	0x3e25dbad	0.16197081
45	0x3d43492b	0.0476772
46	0xbe539fce	-0.2066643
47	0xbc47a674	-0.012185682
48	0xbdfac10d	-0.12243853
49	0x3d9863d9	0.074409194
50	0x3dff8366	0.12476234
51	0xbe3547e6	-0.17703208
52	0xbd590128	-0.05297962
53	0xbe09bc5a	-0.13450757
54	0x3a0b3d34	0.0005311549
55	0x3e43be6f	0.19115613
56	0x3c75db58	0.015005909
57	0x3cb8daef	0.022565333
58	0xbaf9be2e	-0.001905387
59	0xbea27038	-0.3172624
60	0xbe2db3e2	-0.16963151
61	0x3e09325d	0.13398118
62	0x3e30440a	0.17213455
63	0xbd8aa6b3	-0.067700766
64	0xbe096da5	-0.13420732
65	0x3e3c485d	0.1838698
66	0x3cebc655	0.028781096
67	0x3e2ad5b0	0.16683078
68	0xbdb7472b	-0.08949121
69	0xbe3cab01	-0.18424608
70	0xbdad6f81	-0.08468533
71	0x3d346357	0.04404005
72	0x3d75dce3	0.060025107
73	0xbd6cb466	-0.05778923
74	0x3db95cf8	0.090509355
75	0x3e01af2c	0.12664479
76	0xbe0d0320	-0.13770723
77	0x3e4b92a9	0.19880165
78	0xbddc89f1	-0.10768498
79	0xbd169b29	-0.036769066
80	0x3d90e429	0.07074768
81	0x3e08f526	0.13374767
82	0x3e5366b7	0.20644651
83	0x3e6b9641	0.23006536
84	0x3e3a3d55	0.18187459
85	0x3e0bc609	0.13649763
86	0xbe46fe50	-0.1943295
87	0x3def3dd3	0.11681714
88	0xbac41090	-0.0014958549
89	0xbe1b4706	-0.15163812
90	0xbdeaeef1	-0.11471356
91	0xbe689e43	-0.22716622
92	0xbda25a22	-0.07927348
93	0xbdf6cf1f	-0.12051224
94	0xbdeb8657	-0.11500233
95	0xbe18b8e8	-0.14914286
96	0xbdfb79ad	-0.12279067
97	0xbdb47871	-0.08812035
98	0xbdaf4435	-0.08557931
99	0x3baa296d	0.0051929266
100	0xbe1f9674	-0.15584737
101	0xbd0d0225	-0.034425873
102	0x3e792ade	0.24332759
103	0xbe3bd26d	-0.1834199
104	0xbe81e515	-0.25370088
105	0xbd91cd06	-0.07119183
106	0xbd8c9db7	-0.06866019
107	0x3ddfef55	0.10934321
108	0xbe30b013	-0.17254667
109	0xbc84b748	-0.016200677
110	0xbd8b5d50	-0.06804907
111	0x3e35b28f	0.17743896
112	0xbe1955ff	-0.14974211
113	0xbdaa1c0f	-0.08306133
114	0x3d3f6e92	0.046736307
115	0xbe3f5a06	-0.18686685
116	0xbcdefb28	-0.02721937
117	0x3da05334	0.0782837
118	0xbda83b48	-0.08214432
119	0x3e4d276f	0.20034574
120	0xbd116208	-0.03549388
121	0x3e277e84	0.16356856
122	0x3e12ae71	0.14324357
123	0x3de13690	0.10996735
124	0x3e14088d	0.14456387
125	0xbdb05ae2	-0.086110845
126	0x3d4fdeee	0.05074971
127	0xbe147fa9	-0.14501823
128	0x3e1ccc20	0.15312243
129	0xbde19ac5	-0.11015848
130	0x3b7d873c	0.0038685342
131	0xbd635aa7	-0.055506375
132	0x3cece60a	0.028918285
133	0x3e283abe	0.16428658
134	0x3d8b17d3	0.067916535
135	0x3e7da115	0.24768479
136	0x3e645273	0.22297077
137	0xbd8d3d82	-0.06896497
138	0xbdb0b5ec	-0.08628449
139	0x3e4c10c6	0.19928274
140	0x3e214772	0.1574991
141	0x3cd0af0d	0.025474096
142	0xbe253ab0	-0.16135669
143	0x3e0f0381	0.1396618
144	0xbd81f0e2	-0.06344773
145	0xbd4e8101	-0.050415996
146	0xbe860ac2	-0.26180083
147	0x3c649d61	0.013953538
148	0x3dc23bec	0.094840854
149	0x3d8e66b1	0.069531806
150	0xbe769a6e	-0.24082348
151	0xbe7a04d4	-0.24415904
152	0xbe8178d0	-0.25287485
153	0xbe29859d	-0.16554876
154	0x3e6d1c99	0.2315544
155	0x3e24fdcd	0.16112442
156	0xbd70e2f6	-0.058810197
157	0x3e2a27ab	0.16616695
158	0xbe05a73c	-0.13052076
159	0xbe2b8297	-0.16749035
160	0xbe470c45	-0.19438274
161	0xbe31ccf8	-0.17363346
162	0x3e55788e	0.20846769
163	0x3dce0b5b	0.1006076
164	0x3baec02f	0.0053329687
165	0xbcc3cf88	-0.02390267
166	0xbdbe48b3	-0.0929121
167	0x3e47ff31	0.19530942
168	0x3e06f156	0.13178
169	0x3d82b141	0.06381465
170	0xbdadd2f2	-0.084875
171	0xbdef5723	-0.11686542
172	0xbe25aae7	-0.16178475
173	0x3e296d2c	0.16545552
174	0xbe189c41	-0.14903356
175	0xbe27b605	-0.16378029
176	0x3e4bf0ec	0.19916123
177	0x3e3aaf71	0.18230988
178	0xbe198b2d	-0.14994498
179	0xbd1832ba	-0.03715775
180	0xbb2a8ff8	-0.0026025753
181	0xbe463357	-0.19355522
182	0xbd526e2a	-0.051374592
183	0xbd954738	-0.072889745
184	0x3e61db25	0.22056253
185	0x3e07e217	0.1326984
186	0xbda14bd5	-0.07875792
187	0xbd56c803	-0.05243684
188	0xbe7779ff	-0.24167632
189	0xbdef6183	-0.11688521
190	0x3d1ca929	0.03824726
191	0xbddba1a7	-0.10724192
192	0x3c129e3d	0.00894886
193	0xbd8b8758	-0.06812924
194	0xbdf77ded	-0.12084565
195	0x3dcffbc8	0.10155445
196	0xbe44b50c	-0.19209689
197	0xbc2ad5c6	-0.010426944
198	0xbe2e9b3d	-0.17051406
199	0x3e4f0d66	0.20219955
200	0xbc63b7e5	-0.013898824
201	0x3e39f7ac	0.18160886
202	0x3d9d7e92	0.07690157
203	0xbd718a98	-0.058970064
204	0xbe87d89a	-0.2653244
205	0xbd74b45a	-0.05974231
206	0xbdeaad1a	-0.11458798
207	0x3e2311eb	0.15924804
208	0x3ce8c2be	0.028413173
209	0xbdfd649f	-0.123727076
210	0xbdb384ff	-0.08765601
211	0x3d2d66a6	0.04233422
212	0xbd034757	-0.032050457
213	0xbe20192f	-0.15634607
214	0xbe3d03b0	-0.18458438
215	0xbe4e5b9d	-0.20152135
216	0x3e3aeb51	0.18253829
217	0xbe3fe996	-0.1874145
218	0xbcaec9b8	-0.021336421
219	0x3db1de5e	0.08684991
220	0x3e18122e	0.14850685
221	0xbe31fb4c	-0.17381018
222	0xbe22cb83	-0.15897946
223	0xbe4c08cd	-0.19925232
224	0xbdbc8568	-0.09205133
225	0xbe1c8083	-0.15283398
226	0x3dbdf657	0.09275501
227	0xbd84fa4b	-0.06493052
228	0x3e057ecf	0.13036655
229	0x3df0e1d0	0.1176182
230	0xbd2f3269	-0.042772684
231	0x3cdb58f2	0.02677581
232	0x3b4c2f52	0.0031156135
233	0xbc2535b6	-0.0100836065
234	0xbd966a10	-0.073444486
235	0x3cdad553	0.026713049
236	0xbd1d8887	-0.03846028
237	0x3d64436a	0.055728354
238	0x3cfdab6b	0.030965528
239	0x3e7c272f	0.24624322
240	0x3db558b5	0.0885481
241	0x3da6dad6	0.081472084
242	0x3e6f4ad1	0.23368384
243	0xbde359a4	-0.11101082
244	0xbe6509aa	-0.22366968
245	0xbe0a9263	-0.13532405
246	0x3d8d348d	0.06894789
247	0xbe172910	-0.14761758
248	0xbe87f548	-0.26554322
249	0x3e330d44	0.17485529
250	0x3e8ad521	0.2711573
251	0xbc37e983	-0.011225107
252	0xbdf72ebb	-0.1206946
253	0x3ddcc38d	0.10779486
254	0xbe115b41	-0.14194967
255	0x3e31a7fa	0.17349234

conv1.bias f4 [64]
0	0xbb811194	-0.003938863
1	0xbe861231	-0.26185754
2	0x3dc8aa70	0.097981334
3	0x3e1881a6	0.14893207
4	0x3e556709	0.20840086
5	0x3d3eb006	0.046554588
6	0xbd57e225	-0.052705903
7	0x3dc44673	0.095837496
8	0x3de2ba23	0.11070659
9	0xbe29a65d	-0.16567369
10	0xbe7f816a	-0.24951711
11	0xbd002857	-0.03128847
12	0xbd31644e	-0.04330855
13	0xbe70d0cd	-0.23517151
14	0xbdd9f344	-0.10642102
15	0x3e489c1c	0.19590801
16	0xbe0f9f32	-0.14025572
17	0xbe3b3ed8	-0.18285692
18	0x3d758913	0.059945177
19	0xbe122f57	-0.14275871
20	0x3e092b79	0.1339549
21	0x3e3377de	0.17526194
22	0x3b57d65e	0.003293417
23	0xbe03db81	-0.12876703
24	0x3c577ad4	0.013151843
25	0xbe0cd297	-0.13752209
26	0xbcaca6d0	-0.021075636
27	0xbae8f6e9	-0.001777378
28	0x3e30cde1	0.17266037
29	0xbe36b209	-0.17841353
30	0xbdc9eb25	-0.098593034
31	0x3dee08f9	0.11622805
32	0xbe4d3d96	-0.20043024
33	0x3d683f1c	0.05670081
34	0xbe4ed04d	-0.20196648
35	0x3e23dbad	0.16001768
36	0x3e35e3d1	0.17762686
37	0xbc8f2c1f	-0.017477093
38	0xbe5486f2	-0.20754603
39	0x3d8a33f2	0.06748189
40	0xbd953821	-0.07286096
41	0xbe700926	-0.2344099
42	0xbdeaa080	-0.11456394
43	0x3c33048e	0.010926379
44	0xbe2c3302	-0.16816333
45	0xbdaf2a6f	-0.085530154
46	0xbe46770b	-0.19381349
47	0xbe5d3ed0	-0.21605992
48	0x3d09bde2	0.033628352
49	0xbe83f8cb	-0.2577575
50	0xbd8aeddd	-0.0678365
51	0xbe2bf5a0	-0.16792917
52	0x3d46af95	0.04850729
53	0xbe829632	-0.25505215
54	0xbe70f296	-0.23530039
55	0xbe379d29	-0.17931046
56	0xbe94201a	-0.28930742
57	0xbd1e7a13	-0.038690638
58	0x3d1ba345	0.037997503
59	0x3c937737	0.018001182
60	0xbe16a541	-0.14711477
61	0xbd90d58b	-0.0707198
62	0xbe3b0e39	-0.18267144
63	0xbe663982	-0.22482875

conv2.weight f4 [32, 64, 3]
0	0x3690b040	4.3120526e-06
1	0xbda05cc1	-0.078301914
2	0xbd7c9d15	-0.061673243
3	0xbdbc57b9	-0.09196419
4	0xbd385355	-0.045001347
5	0xbdfa0412	-0.122078076
6	0x3d3ed9ab	0.046594303
7	0xbd002210	-0.031282485
8	0xbd8f531c	-0.06998274
9	0x3e0e4379	0.13892926
10	0xbc51dd9b	-0.0128091825
11	0xbda24641	-0.07923556
12	0xbd7d5283	-0.061846267
13	0x3d5efdaf	0.05444115
14	0x3d833857	0.0640723
15	0x3caea864	0.02132053
16	0x3dafb52f	0.0857948
17	0x3d4fa7aa	0.050697006
18	0xbd7b36b7	-0.061331477
19	0x3d458bc4	0.048228994
20	0xbd28c72c	-0.04120557
21	0x3a7cbe3c	0.0009641384
22	0xbd25d3b3	-0.040485095
23	0x3dcad64c	0.09904155
24	0xbb4941cc	-0.0030709384
25	0xbd60aab5	-0.0548503
26	0x3d8c2ece	0.06844865
27	0xbd5c2653	-0.053747486
28	0xbbf103cc	-0.007355189
29	0x3d6e9fa7	0.058257725
30	0xbd3d6cac	-0.046246216
31	0x3d819207	0.06326681
32	0x3c48b498	0.012250088
33	0x3deeaf55	0.11654536
34	0xbd120fa1	-0.035659436
35	0xbe20d88e	-0.15707609
36	0x3c0aaff3	0.008464801
37	0x3b92f653	0.0044849305
38	0xbd94dbe9	-0.07268507
39	0xbdb3644d	-0.08759365
40	0xbd65def0	-0.056120813
41	0x3d82213b	0.063539945
42	0xbcfaaf0b	-0.030601045
43	0x3d375674	0.044760182
44	0x3ca75f71	0.020431252
45	0xbd088dcf	-0.033338364
46	0xbd0d7953	-0.034539532
47	0xbd8acce5	-0.06777362
48	0xbc79b62b	-0.015241186
49	0xbddbd481	-0.10733891
50	0xbd4593c1	-0.048236612
51	0xbdd5517f	-0.10415935
52	0xbca303e8	-0.019899324
53	0x3d7b76b3	0.061392497
54	0x3d9aed88	0.07564837
55	0x3b0bf060	0.0021352991
56	0xbce144b4	-0.02749858
57	0xbe07b4f3	-0.1325262
58	0xbdd1f76f	-0.10252272
59	0xbc696e8b	-0.014247547
60	0xbd181fe7	-0.0371398
61	0xbe2759af	-0.16342805
62	0xbe6be341	-0.23035909
63	0xbdb2dcdd	-0.087335326
64	0x3d394adf	0.04523742
65	0xbd347647	-0.04405811
66	0x3cbd70e9	0.023125129
67	0x3d9d9cf1	0.0769595
68	0x3d549859	0.051903103
69	0x3def5f07	0.11688047
70	0x3d240fff	0.040054318
71	0x3dfebd3e	0.12438439
72	0xbc2a5715	-0.010396739
73	0xbd2eed32	-0.042706676
74	0x3d82a05e	0.06378244
75	0xbcc3621b	-0.023850491
76	0xbdbdc038	-0.092651784
77	0xbdf1f166	-0.11813621
78	0xbdc09c50	-0.09404814
79	0xbd7e0619	-0.062017534
80	0x3d724602	0.059148796
81	0x3db38378	0.0876531
82	0x3cbd4c04	0.023107536
83	0x3c61aac2	0.013773622
84	0x3dbe8494	0.09302631
85	0xbcc9e25d	-0.024644071
86	0xbd64d0e3	-0.055863272
87	0xbd482f5f	-0.0488733
88	0x3d0aaa37	0.033853736
89	0x3d1005f8	0.035161942
90	0xbc4a3e86	-0.012344008
91	0x3cd9292a	0.026508886
92	0x3d86a08b	0.0657359
93	0xbcfb21e5	-0.03065581
94	0x3d836b64	0.064169675
95	0x3c415587	0.011800176
96	0x3d4b658f	0.0496574
97	0x3b8e0897	0.00433452
98	0xbc7a5f7a	-0.015281552
99	0xbd544fc5	-0.051833887
100	0xbe0570fa	-0.13031378
101	0xbc619e49	-0.013770648
102	0xbd064997	-0.032785024
103	0x3d06070e	0.03272157
104	0xbcfba1af	-0.030716745
105	0xbe08e7c5	-0.13369663
106	0xbdefa356	-0.11701076
107	0xbda64399	-0.08118362
108	0x3cb1a360	0.021684349
109	0xbcbd47db	-0.023105552
110	0xbddcf284	-0.10788444
111	0x3ba27a8a	0.0049584555
112	0xbcc335dd	-0.023829395
113	0xb582e400	-9.752112e-07
114	0x3e008b7f	0.12553214
115	0xbd0b307f	-0.033981796
116	0x3d16af38	0.036788195
117	0x3c557a29	0.0130296135
118	0xbd394217	-0.045229044
119	0xbde0daa9	-0.10979206
120	0x3e3ca20a	0.18421188
121	0x3db62326	0.08893423
122	0xbdffb333	-0.124853514
123	0xbdc2e5c9	-0.09516484
124	0x3cf0220c	0.02931311
125	0xbd94bb70	-0.07262313
126	0xbd4587c9	-0.048225198
127	0xbd54698c	-0.05185847
128	0x3c0b5f6b	0.008506636
129	0x3d1fc035	0.039001662
130	0x3d3152c8	0.043291837
131	0x3b889be7	0.0041689756
132	0x3c8acb9b	0.01694279
133	0x3d6601b3	0.056153964
134	0xbdf43023	-0.11923244
135	0xbe45215a	-0.19251004
136	0xbd9eaff6	-0.07748406
137	0x3cd45ee0	0.025924146
138	0xbd59d986	-0.053185962
139	0xbb3a2799	-0.002840495
140	0xbd23b563	-0.039967906
141	0x3da77792	0.08177103
142	0xbdbc1a78	-0.09184736
143	0xbdf61938	-0.12016529
144	0x3d0d02b3	0.034426402
145	0x3d1a043d	0.0376017
146	0x3dae5d4e	0.0851389
147	0xbc6add1f	-0.014334946
148	0xbcf41d0e	-0.02979901
149	0xbddaaf52	-0.10677971
150	0xbd6a1683	-0.057150375
151	0xbe28566b	-0.16439216
152	0xbd302b0c	-0.043009803
153	0xbd6ad5f8	-0.057332963
154	0x3d1de1d7	0.038545456
155	0x3d34422b	0.044008415
156	0xbd845765	-0.06461982
157	0xbdc470f4	-0.095918566
158	0xbda3e5d6	-0.08002822
159	0x3c05a739	0.008157545
160	0x3d15714a	0.036484994
161	0xbb6f1e30	-0.00364865
162	0xbe01cb89	-0.12675299
163	0xbe195bdc	-0.14976448
164	0xbe283e3d	-0.16429992
165	0x3d6a8796	0.05725821
166	0x3c7c874e	0.0154131185
167	0xbd86dcec	-0.06585106
168	0xbccb0c87	-0.024786247
169	0xbd2aec70	-0.04172939
170	0xbd9f25d1	-0.07770885
171	0xbd0fdecc	-0.035124585
172	0xbcf16b04	-0.029469974
173	0xbdd16c52	-0.102257386
174	0x3c82849e	0.015932377
175	0xbd9a2c4b	-0.075279795
176	0xbd9db6dd	-0.07700894
177	0xbc83bdf9	-0.016081797
178	0x3d8e2b5a	0.069418624
179	0x3bcfaf85	0.006338062
180	0xbd924591	-0.07142175
181	0x3d6cf58a	0.05785135
182	0xbabf70d0	-0.0014605764
183	0xbce5326f	-0.02797815
184	0xbc308b9f	-0.010775476
185	0xbcc6ba2c	-0.024258696
186	0xbd143a48	-0.036188394
187	0x3aa61043	0.0012669641
188	0xbda13cb5	-0.07872907
189	0x3db9102b	0.09036287
190	0x3e10587a	0.14096251
191	0x3d1096ac	0.035299942
192	0xbd802482	-0.06256963
193	0x3cdff403	0.027338034
194	0x3d150475	0.036381204
195	0x3d786c22	0.06065
196	0x3bd3357c	0.006445585
197	0x3d2cbfa7	0.04217496
198	0x3cb48c35	0.022039512
199	0x3c9947e1	0.018711032
200	0x3c64566d	0.013936621
201	0x3bc69a21	0.006060854
202	0x3ccc7df3	0.024962401
203	0xbd42c04a	-0.047546662
204	0x3cd0a472	0.025469039
205	0x3d8cbdbb	0.06872126
206	0x3ca5291e	0.020161208
207	0x3d8a6f65	0.06759528
208	0x3cf73ee0	0.030181348
209	0xbcfb6786	-0.030689012
210	0x3d2a1cc2	0.04153133
211	0xbc7605cf	-0.015016033
212	0x3da50d69	0.080591984
213	0xbda84ae8	-0.08217412
214	0x3c945474	0.018106677
215	0xbdc5f4b8	-0.09665817
216	0x3c8274a7	0.015924765
217	0xbd34d028	-0.044143826
218	0xbbb00407	-0.005371574
219	0x3d0f2dfc	0.034955963
220	0xbc4e2466	-0.01258192
221	0xbd6684f3	-0.056279134
222	0x3d1595b9	0.03651974
223	0x3d6d0e3c	0.057874903
224	0xbd96148f	-0.0732814
225	0x3d60b007	0.054855373
226	0x3cba7bcd	0.022764111
227	0x3dce0999	0.10060424
228	0xbdb6259c	-0.08893892
229	0xb813cdae	-3.5239085e-05
230	0xbd30bfa0	-0.043151498
231	0xbba31d31	-0.004977845
232	0x3db19f74	0.086729914
233	0x3d4f7385	0.050647277
234	0xbc542818	-0.012949012
235	0xbdcafe00	-0.09911728
236	0xbda6ad00	-0.08138466
237	0xbbf3564f	-0.0074260603
238	0xbd1f5014	-0.038894728
239	0xbd34c089	-0.04412893
240	0xbd9610a6	-0.07327394
241	0xbd0d70eb	-0.034531515
242	0x3cbeecc1	0.023306252
243	0x3c517b0b	0.012785683
244	0x3c965438	0.018350706
245	0x3d2c8c65	0.04212608
246	0xbd97e1f9	-0.07416148
247	0xbd9b5394	-0.07584301
248	0xbc0d7f74	-0.008636344
249	0xbc8f7cf8	-0.017515644
250	0x3cf43ec6	0.029815089
251	0xbd634a16	-0.055490576
252	0xbd5da943	-0.0541165
253	0x3d8e2f85	0.069426574
254	0x3da7e628	0.08198196
255	0xbca5fd34	-0.020262338

conv2.bias f4 [32]
0	0xbd87f666	-0.06638794
1	0xbd0a3c62	-0.03374899
2	0x3dc99cc0	0.09844351
3	0xbc913eb4	-0.017730094
4	0x3ce4d411	0.027933152
5	0xbd216d76	-0.03941103
6	0x3d2f54f5	0.04280563
7	0xbd9acfb6	-0.07559149
8	0x3c705302	0.014668228
9	0xbd23ed9a	-0.040021516
10	0x3cbdadc1	0.023154141
11	0xbd9b07e4	-0.075698644
12	0x3d5f2326	0.05447688
13	0x3d07e510	0.033177435
14	0x3d6c52f3	0.057696294
15	0xbd55ae47	-0.052168157
16	0x3d4f97a3	0.05068172
17	0xbd1ef218	-0.038805097
18	0x3d05b0ed	0.032639433
19	0x3b639a59	0.003472945
20	0xbcb6c074	-0.022308566
21	0xbcc62cc4	-0.024191268
22	0xbc8996c5	-0.016795525
23	0x3c29a43e	0.0103541
24	0xbd688186	-0.05676415
25	0xbd400a22	-0.046884663
26	0x3d06bcf4	0.032895043
27	0x3d391361	0.045184497
28	0xbda76afc	-0.081747025
29	0x3d275cb5	0.040859897
30	0xbd0f0637	-0.034918036
31	0x3c6c7821	0.014432938

fc1.weight f4 [64, 832]
0	0x3c6c0148	0.014404602
1	0x3c1ac0aa	0.009445349
2	0xbc76e87b	-0.015070076
3	0x3a052f7d	0.00050806237
4	0x3cefe223	0.029282635
5	0x3d29ab04	0.04142286
6	0x3d135d40	0.035977602
7	0x3d0eade6	0.03483381
8	0x3d6c1098	0.057633013
9	0x3d5e02db	0.054201942
10	0x3d43ffff	0.04785156
11	0x3ce99acd	0.028516198
12	0x3cac2aec	0.02101656
13	0xbc5a6085	-0.013328676
14	0xbced3ea4	-0.028960533
15	0x3d01224f	0.03152686
16	0xbd1da4f6	-0.038487397
17	0xbc4df354	-0.012570221
18	0xbd0f4e48	-0.034986764
19	0xbd0f0c2c	-0.034923717
20	0xbca8a56f	-0.020586697
21	0xbd1a4dad	-0.037671734
22	0xbd4373a2	-0.047717698
23	0xbc7ffa5e	-0.015623657
24	0xbdb27936	-0.087145254
25	0xbc29edaa	-0.010371605
26	0x3c81d3b4	0.015848018
27	0x3cece8e6	0.028919648
28	0x3b8159f0	0.003947489
29	0x3d2d7ad9	0.042353485
30	0x3cc77fa3	0.024352854
31	0x3d153709	0.03642944
32	0x3d2b6861	0.04184759
33	0x3cf55bf7	0.029951079
34	0x3d50a2de	0.050936572
35	0x3b916a1f	0.0044376994
36	0x3cac3669	0.021022039
37	0x39848b08	0.00025280588
38	0xbcd5568c	-0.026042245
39	0xbc492539	-0.012276941
40	0xbc56c6df	-0.013108938
41	0xbcb654b9	-0.022257196
42	0xbce3fbab	-0.027829966
43	0xbd97ea9c	-0.07417795
44	0xbde89d1d	-0.11358092
45	0xbd96f6a2	-0.0737126
46	0xbdbaf7e8	-0.091293156
47	0xbd8f67a7	-0.07002192
48	0xbdb2331f	-0.08701157
49	0xbdcf3710	-0.10117924
50	0xbda05f83	-0.078307174
51	0xbdd673b7	-0.104712896
52	0xbd11ee07	-0.03562739
53	0xbc9f7a2d	-0.019467438
54	0xbd986748	-0.07441574
55	0xbd7f014a	-0.06225709
56	0xbce9679f	-0.028491793
57	0xbcf53601	-0.029932978
58	0xbb87a6a7	-0.0041397396
59	0xbc7f8fba	-0.015598232
60	0xbba70ec1	-0.0050981943
61	0xbd84938a	-0.06473453
62	0xbd1d2bbe	-0.038371794
63	0xbd06228a	-0.032747783
64	0xbd301fe5	-0.042999167
65	0xbc419118	-0.011814378
66	0xbc63b2a0	-0.013897568
67	0xbaea7542	-0.0017887729
68	0xbd147c2d	-0.036251236
69	0xbcbadcab	-0.0228103
70	0xbcea67c7	-0.028613938
71	0x3ab5d3e0	0.0013872348
72	0x3ba8ddc3	0.005153389
73	0x3bcad6b9	0.0061901477
74	0x3c4a8f90	0.0123633295
75	0x3c5976e9	0.013272979
76	0x3cc304bc	0.023805968
77	0x3d0993f3	0.03358836
78	0x3d892297	0.066960506
79	0x3d0bd500	0.03413868
80	0x3d6806d9	0.056647155
81	0x3d6becf8	0.057599038
82	0x3d41b872	0.04729504
83	0x3d4a90c7	0.049454477
84	0x3d928dd1	0.071559556
85	0x3cfaa9ba	0.03059851
86	0x3d808bcc	0.06276664
87	0x3cc57257	0.024102373
88	0x3d1af5a9	0.037831936
89	0x3cbf41e1	0.023346843
90	0x3c6b39c8	0.014357038
91	0x3d167564	0.036733046
92	0x3d1c63af	0.038181003
93	0x3cf197de	0.029491361
94	0xbc478605	-0.012177949
95	0x3c56cea0	0.013110787
96	0x3c7be86c	0.015375238
97	0x39263963	0.00015852372
98	0x3c1801b8	0.0092777535
99	0x3d2d66b9	0.042334292
100	0x3ce52fd2	0.027976904
101	0xbcd6f407	-0.026239408
102	0x3cf61f14	0.030044116
103	0x3bd05be0	0.0063586086
104	0xbc8d4991	-0.017246993
105	0x3b08be15	0.002086525
106	0x3c8530ab	0.016258558
107	0xbb09f30b	-0.0021049406
108	0xbce4e88d	-0.02794292
109	0x3ba2a2fc	0.004963277
110	0xbca63c71	-0.020292493
111	0x3a6e93b1	0.0009100987
112	0x3c64bca4	0.013960991
113	0x3cfcd9b6	0.030865531
114	0x3b5996d2	0.0033201468
115	0xbc1e12f1	-0.009648071
116	0xbb77643f	-0.003774896
117	0x3c842bda	0.016134191
118	0x3c9b8924	0.018986292
119	0x3c81df22	0.015853468
120	0x3c9a7f0b	0.018859407
121	0x3bc8ce9d	0.006128146
122	0x3aac5b48	0.0013149763
123	0xbcb56c51	-0.022146376
124	0x3c9dafa8	0.019248798
125	0x3c40a652	0.011758404
126	0x3d2aba3f	0.041681524
127	0x3c22ba1b	0.009932066
128	0x3d5b2b55	0.05350812
129	0x3c671311	0.014103667
130	0x3cbc3a81	0.022977116
131	0xbc8f8092	-0.017517362
132	0xbcb6148f	-0.0222266
133	0xbc371e39	-0.011176639
134	0xbcc952b1	-0.024575563
135	0xbce6528c	-0.028115533
136	0xbce8f7d8	-0.028438494
137	0xbd5f6e06	-0.054548286
138	0xbd5f28b3	-0.054482173
139	0xbd4c616e	-0.049897604
140	0xbd23d4cb	-0.039997857
141	0xbd02efbe	-0.031966917
142	0x3c4e8708	0.012605436
143	0x3cdb597a	0.026776064
144	0x3c9610bf	0.018318532
145	0x3c41ad29	0.01182107
146	0xbd12ce82	-0.035841472
147	0xbced81c5	-0.028992543
148	0xbbc6f0c0	-0.00607118
149	0xbc4c105d	-0.012455073
150	0xbd15f3f7	-0.036609616
151	0x3b2f4164	0.0026741857
152	0x3bf5abfa	0.007497308
153	0x3d36810c	0.044556662
154	0xbc7586b3	-0.014985728
155	0xbd1928a2	-0.037392266
156	0xbd04b3e2	-0.032398112
157	0xbcce3e0e	-0.025176074
158	0x3be949b3	0.0071193813
159	0x3c1b282b	0.009470026
160	0x3d1f349e	0.03886854
161	0xbcc703ad	-0.024293745
162	0xbc0370f6	-0.008022537
163	0x3b645575	0.0034840975
164	0x3c2b2552	0.01044591
165	0x3b93e10d	0.004512912
166	0xbc3bce90	-0.011462823
167	0x3d069eba	0.032866217
168	0x3d1b91b3	0.037980746
169	0x3d393cb4	0.045223907
170	0x3cc152cc	0.023599051
171	0x3d3a23ab	0.045444172
172	0x3c88fab2	0.016721103
173	0x3c25c5f2	0.010117995
174	0x3cc3329c	0.023827843
175	0xba1aadf5	-0.00059005554
176	0x3cf3b8be	0.029751178
177	0x3d4b0ae8	0.049570948
178	0x3c823538	0.015894517
179	0x3caf1485	0.02137209
180	0x3ba2fab8	0.0049737357
181	0xbcdfa65d	-0.027301008
182	0xbacf65a1	-0.0015823134
183	0xbcaa6a56	-0.020802658
184	0xbd3b707e	-0.045761578
185	0x3c3825ec	0.01123951
186	0xbcad44d1	-0.021150978
187	0xbd1075f2	-0.03526873
188	0xbcc980c9	-0.024597542
189	0xbc109d15	-0.008826514
190	0xbd155b12	-0.036463805
191	0xbd540924	-0.05176653
192	0xbd2abdc6	-0.04168489
193	0xbae33571	-0.0017334652
194	0xbbbd06c3	-0.0057686283
195	0xbc4b1f9e	-0.012397675
196	0xbd157894	-0.036491945
197	0xbd095dd8	-0.033536762
198	0xbc1b0770	-0.009462222
199	0xbd55ee1e	-0.05222904
200	0xbcb0a21e	-0.021561678
201	0x3b2e1dbf	0.0026568023
202	0xbc1bc61e	-0.009507684
203	0xbcad15f8	-0.02112864
204	0xbc96df50	-0.01841703
205	0xbbfe46f8	-0.007759925
206	0xbb82ce38	-0.0039918683
207	0xbd65e3fd	-0.05612563
208	0x3cf842cf	0.030305294
209	0x3d3dea29	0.04636589
210	0x3d170760	0.036872268
211	0x37a2aa87	1.9391313e-05
212	0x3caa1b87	0.02076508
213	0x3d4ecb49	0.050486837
214	0x3cfe27f3	0.031024909
215	0x3d86ed47	0.06588226
216	0x3cf20d8f	0.02954748
217	0x3cda7f4e	0.026672032
218	0x3cbad627	0.022807194
219	0xbbbf9ac1	-0.0058473055
220	0x3cb5e429	0.022203522
221	0x3d3fb388	0.046802074
222	0x3d50596e	0.050866537
223	0x3c86fb10	0.016477138
224	0x3c9c4b02	0.019078735
225	0x3c5cbc75	0.013472666
226	0xbc0ddc0a	-0.008658418
227	0xbccb8fbe	-0.024848815
228	0xbc119d9d	-0.008887676
229	0xbc04946a	-0.008092025
230	0xbc9755a8	-0.018473461
231	0xbc89f674	-0.01684115
232	0xbcaacfc8	-0.020851031
233	0xbd93c9e8	-0.07216245
234	0xbca58ac8	-0.020207778
235	0xbb4c125c	-0.0031138873
236	0xbc616d08	-0.013758905
237	0xbd0423a1	-0.03226054
238	0xbd018514	-0.031621054
239	0xbc94f8f2	-0.018185113
240	0x3ca0a660	0.019610584
241	0xbcf7922a	-0.030221064
242	0xbccc3fbd	-0.024932737
243	0xbc3d7cb0	-0.011565372
244	0xbcdd84d0	-0.027040869
245	0xbc9cf79a	-0.019161034
246	0xbbb314e5	-0.0054651373
247	0x3d05dc49	0.032680783
248	0x3c9ef296	0.019402783
249	0xbc5523c6	-0.013009017
250	0xbcd6a2c1	-0.026200654
251	0x3c8cc2cc	0.01718273
252	0xbd09a06f	-0.033600267
253	0x3b862ba9	0.00409456
254	0x3ca11c3f	0.01966679
255	0x3d029b6d	0.031886507

fc1.bias f4 [64]
0	0x3e2eb982	0.17062953
1	0x3c98e854	0.01866547
2	0x3cd37018	0.025810286
3	0x3b2d91a6	0.0026484518
4	0x3cd42b4e	0.025899556
5	0x3d9a85eb	0.07545074
6	0x3da3ced4	0.07998434
7	0x3d8a6fae	0.067595825
8	0xbca04363	-0.019563382
9	0x3d1cf313	0.03831775
10	0xbc248d6f	-0.010043486
11	0x3df4a7a8	0.119460404
12	0xbc97df74	-0.018539168
13	0xbc836463	-0.016039079
14	0x3e3e1dab	0.18566005
15	0x3d5b9465	0.053608317
16	0x3da4f71a	0.080549434
17	0x3d3695b4	0.04457636
18	0x3c43e0d4	0.011955459
19	0x3b61425c	0.0034371829
20	0xbb8b3f06	-0.0042494563
21	0x3cb2331e	0.02175289
22	0x3d9d169e	0.076703295
23	0xbcc1e903	-0.023670679
24	0xbc078579	-0.008271568
25	0x3d9d17f8	0.07670587
26	0xbc5c23bc	-0.013436254
27	0x3d66c99d	0.056344617
28	0xbc438443	-0.011933389
29	0x3d663cdc	0.056210384
30	0x3a838f48	0.0010037208
31	0x3e0c9baa	0.13731256
32	0xbbba07ca	-0.005677198
33	0xbcebab0e	-0.028768089
34	0x3d165c03	0.036708843
35	0x3c70b157	0.014690719
36	0x3cffa1f2	0.031205151
37	0x3cbc56df	0.022990642
38	0xbd19676a	-0.03745214
39	0x3d108215	0.035280306
40	0x3db9532e	0.090490684
41	0x3cf06543	0.02934516
42	0x3d9e201c	0.07720968
43	0xbbe5660a	-0.0070006894
44	0x3c8e74af	0.017389623
45	0x3cf7a161	0.030228319
46	0x3d95af43	0.07308819
47	0x3d75097e	0.059823506
48	0x3c30b894	0.010786194
49	0x3d30fc52	0.04320938
50	0x3d081b02	0.03322888
51	0xbd11e04c	-0.035614297
52	0x3d5d2206	0.053987525
53	0x3d48ff88	0.04907182
54	0xbd136150	-0.035981476
55	0x3c19ced3	0.00938769
56	0x3aa42e64	0.0012526033
57	0xbc74c2c5	-0.014939015
58	0xbc3cf90b	-0.011533986
59	0x3d51fd3b	0.05126689
60	0xbc97f829	-0.01855095
61	0x3cdae33f	0.026719688
62	0xbbb664f5	-0.0055662342
63	0xbd08aefd	-0.033370007

sharpe_out.weight f4 [1, 64]
0	0x3d04ac91	0.032391135
1	0x3c42934c	0.011875939
2	0x3cffa4c6	0.0312065
3	0xbc1ed2a7	-0.009693778
4	0x3c346dac	0.011012476
5	0xb979eb96	-0.00023834253
6	0xbc230cd9	-0.009951794
7	0x3d5b72d8	0.05357632
8	0xbd3d2433	-0.0461771
9	0xbd3122d0	-0.04324609
10	0x3ceeb8c5	0.02914084
11	0x3b2a915c	0.0026026582
12	0xbc90672e	-0.017627325
13	0xbbbddb98	-0.005794
14	0xbb052610	-0.0020316876
15	0xbb7bc6ad	-0.003841798
16	0xbd3d4983	-0.046212684
17	0xbc57660e	-0.01314689
18	0x3d015ae6	0.031580828
19	0x3ba5eb37	0.00506344
20	0xbc816cf2	-0.01579902
21	0xbc982f3b	-0.018577209
22	0x3c3235b9	0.010877066
23	0x3d929f22	0.071592584
24	0x3d09c5cc	0.0336359
25	0x3c5c5dec	0.013450127
26	0xb9d32209	-0.00040270414
27	0xbc6b7620	-0.014371425
28	0xbd578de7	-0.052625563
29	0x3cbf8631	0.023379417
30	0x3bcef865	0.006316232
31	0x3c85e4f8	0.016344532
32	0x3dd58605	0.10425953
33	0x3dbdbe11	0.09264768
34	0x3bc1d8e5	0.0059157484
35	0xbdad6c02	-0.084678665
36	0x3c9490ab	0.01813539
37	0x3d18c34f	0.037295636
38	0x3da04395	0.0782539
39	0x3d40d81e	0.047081105
40	0x3d491471	0.04909176
41	0xbc6c009f	-0.014404445
42	0x3dbe1fa7	0.09283381
43	0x3cd24b93	0.025670802
44	0x3cda412c	0.026642404
45	0x3c85f601	0.016352655
46	0x3c090d21	0.008364947
47	0x3d0a744b	0.033802312
48	0xb9263e65	-0.00015854237
49	0xbd005189	-0.031327758
50	0xbd5a70ed	-0.05333035
51	0xbd94dbcd	-0.07268486
52	0x3c8b44a9	0.017000513
53	0xbd14070e	-0.03613954
54	0xbcb85a44	-0.02250398
55	0x3d8b6988	0.06807238
56	0xbda187c7	-0.078872256
57	0xbd30d243	-0.04316927
58	0xbc9dd672	-0.019267295
59	0xbc83c8e2	-0.016087
60	0xbcacf209	-0.021111505
61	0xbd33992d	-0.04384725
62	0xbccb6bff	-0.02483177
63	0xbba6079b	-0.0050668246

weights_out.weight f4 [8, 64]
0	0x3e0425fb	0.12905113
1	0x3c548e6c	0.012973409
2	0x3ea71ed3	0.32640705
3	0xbea7c5cf	-0.32768103
4	0xbcd4cd6d	-0.02597686
5	0x3e188a7c	0.14896578
6	0xbe57a89e	-0.21060416
7	0x3d8abd94	0.067744404
8	0xbe0d7315	-0.13813432
9	0x3dab05db	0.08350726
10	0x3e6adf55	0.22936757
11	0x3e294e55	0.16533788
12	0xbeab2802	-0.3342896
13	0xbe8de389	-0.27712658
14	0x3e3e3711	0.18575694
15	0xbe0a381e	-0.1349797
16	0xbdbcd5db	-0.09220477
17	0x3e253e77	0.1613711
18	0xbe0b77e3	-0.13619952
19	0xbe365af0	-0.17808127
20	0x3e3f29fe	0.18668362
21	0xbceee297	-0.02916078
22	0x3dcff6d4	0.101545006
23	0x3e98aa57	0.2981746
24	0x3d10657b	0.03525303
25	0x3e9d2eb8	0.30699706
26	0xbbd10efd	-0.0063799606
27	0x3e5a3b00	0.21311569
28	0xbe485b01	-0.19565965
29	0xbdd4f2da	-0.10397883
30	0x3e694a5f	0.22782277
31	0xbe552e8a	-0.20818534
32	0xbd0e8585	-0.034795303
33	0xbdaa1050	-0.083038926
34	0xbea0a19b	-0.31373295
35	0xbd28d545	-0.041219015
36	0xbeb76db3	-0.3582588
37	0x3c6f69c1	0.014612616
38	0xbb3ae4dc	-0.0028517758
39	0x3dd24b03	0.102682136
40	0x3dbb4480	0.09143925
41	0xbd7007a9	-0.058601055
42	0x3ceaac4d	0.028646613
43	0xbd307014	-0.043075636
44	0x3e2e68fd	0.17032237
45	0xbe44f109	-0.19232573
46	0x3d9f9d87	0.07793718
47	0x3eb574b3	0.35440597
48	0xbdce63c9	-0.10077626
49	0xbe3f53fd	-0.18684383
50	0xbdc7628c	-0.09735593
51	0xbdc586f1	-0.09644879
52	0x3e287714	0.16451675
53	0x3e9f1f2b	0.31078467
54	0xbe15adec	-0.14617127
55	0xbd314f1d	-0.04328834
56	0x3cdf931e	0.02729183
57	0xbd85a7d2	-0.0652615
58	0x3e8ad1f7	0.27113315
59	0x3e97dc7d	0.29660407
60	0xbbe267b3	-0.0069093346
61	0xbe9ec629	-0.3101056
62	0xbee415a9	-0.44547775
63	0xbe5fbd16	-0.21849474
64	0xbe56e8d1	-0.2098725
65	0x3e7f429f	0.24927758
66	0xbe31aa05	-0.17350014
67	0x3c8a4281	0.016877415
68	0x3e6f767e	0.23385045
69	0xbe8e4228	-0.27784848
70	0x3e92ea18	0.28694224
71	0xbd84d879	-0.064866014
72	0x3e8b778f	0.27239653
73	0x3ae22172	0.0017252399
74	0x3d59c1e2	0.053163417
75	0xbeee689d	-0.4656419
76	0x3d99e325	0.075140275
77	0x3e1d4bc9	0.15360941
78	0xbe5d4afc	-0.21610636
79	0x3e3c8ae5	0.18412359
80	0xbd12b8fb	-0.035820942
81	0x3d7038fc	0.058648095
82	0x3da1ee4e	0.07906781
83	0xbee62008	-0.44946313
84	0xbeabdc30	-0.33566427
85	0xbc0e80a0	-0.008697659
86	0xbc8afdee	-0.016966786
87	0x3e741799	0.23837127
88	0xbdf83588	-0.12119585
89	0xbdc03d9a	-0.093867496
90	0x3dad30db	0.08456584
91	0xbdb0cea6	-0.08633165
92	0x3e9162d0	0.283957
93	0xbe787c02	-0.24266055
94	0xbc9c08fa	-0.01904725
95	0xbedd945f	-0.4327726
96	0xbd473dd9	-0.048642967
97	0xbba7135d	-0.005098744
98	0xbe5dec60	-0.21672201
99	0xbcf39aac	-0.02973684
100	0xbe0672b8	-0.13129699
101	0xbe0d8773	-0.13821201
102	0x3dba59c4	0.09099153
103	0xbd27d104	-0.040970817
104	0xbddc5d19	-0.107599445
105	0x3eac0ef7	0.33605167
106	0xbc2059ab	-0.0097870035
107	0x3d49d5bb	0.049276095
108	0x3e80f8f1	0.25189927
109	0xbc9b8f1e	-0.018989142
110	0xbe264deb	-0.16240661
111	0xbe2730be	-0.16327187
112	0x3e01f2b7	0.12690245
113	0x3e25f737	0.16207586
114	0x3e5d1dde	0.21593425
115	0x3db4af5d	0.088225104
116	0x3d53f6bf	0.051748987
117	0xbd976992	-0.07393183
118	0x3efd28a3	0.49445066
119	0x3dd82224	0.10553387
120	0x3c92e6bc	0.017932288
121	0x3e3b2bc2	0.18278411
122	0xbe5cf605	-0.21578224
123	0x3d649cdf	0.055813666
124	0x3df5a415	0.11994187
125	0xbc9b6ba6	-0.01897223
126	0x3d907b85	0.070548095
127	0xbd27b9e7	-0.040948775
128	0x3dfde018	0.12396258
129	0xbdc45f99	-0.09588546
130	0xbebc8592	-0.36820656
131	0x3e4adca5	0.19810732
132	0xbdb0ec6e	-0.086388454
133	0xbdf93dea	-0.12170012
134	0x3e8a3677	0.26994678
135	0x3e72b67d	0.23702426
136	0x3dec56f9	0.11540026
137	0x3e263b38	0.16233528
138	0xbeb00e46	-0.3438589
139	0x3c6fc3eb	0.014634113
140	0xbef5e2e0	-0.48024654
141	0x3df77fba	0.12084909
142	0x3e718046	0.23584089
143	0x3ebd83e2	0.3701468
144	0x3e3e6511	0.18593241
145	0x3dc6b38a	0.09702213
146	0xbe9be0bb	-0.30444893
147	0xbe9ad4e2	-0.30240542
148	0xbe0c93a5	-0.13728197
149	0x3d1f759e	0.038930528
150	0xbe1606d8	-0.14651048
151	0xbcede82f	-0.029041378
152	0x3de0af06	0.10970883
153	0xbeaefd71	-0.34177735
154	0x3dd31174	0.10306063
155	0x3e019e68	0.12658083
156	0x3dd78a89	0.1052447
157	0xbdae9b8c	-0.08525762
158	0xbe8f1b5c	-0.2795056
159	0x3daa97bb	0.083297215
160	0xbdd83fc1	-0.10559035
161	0x3d8b4507	0.06800275
162	0x3d7ebdd6	0.06219276
163	0x3b59e172	0.0033245948
164	0x3defb378	0.11704153
165	0x3e0dcd11	0.13847758
166	0xbdbaf802	-0.09129335
167	0x3d3026b8	0.043005675
168	0x3e37e92d	0.17960043
169	0x3e93eacf	0.28890082
170	0x3d2013bb	0.039081316
171	0xbdd39b90	-0.103324056
172	0xbe3a1a44	-0.18174082
173	0xbeb5adf6	-0.35484284
174	0xbdfe2cce	-0.124108896
175	0xbdb11a7b	-0.08647629
176	0x3d6c5575	0.057698686
177	0x3e9f6dde	0.3113851
178	0xbea69851	-0.32538083
179	0x3c48fc68	0.01226721
180	0xbe337bdf	-0.17527722
181	0xbd5e1e00	-0.05422783
182	0xbc88da03	-0.016705519
183	0x3e0d9095	0.13824685
184	0x3d8d5b87	0.06902223
185	0x3ed7e2cb	0.42165217
186	0xbe18065d	-0.14846177
187	0xbdc0bfa6	-0.09411554
188	0x3d6115af	0.05495232
189	0xbd81078c	-0.063002676
190	0xbdf28ce1	-0.11843277
191	0xbe256b8e	-0.1615431
192	0xbe1097a1	-0.14120342
193	0xbe119a50	-0.14219022
194	0x3e852bc5	0.26009956
195	0xbcea2a67	-0.028584672
196	0x3d84997d	0.06474588
197	0x3cde67b4	0.027149059
198	0xbe436fc8	-0.1908561
199	0xbe9c126a	-0.304828
200	0xbe7e90d5	-0.24859937
201	0xbd2ad0af	-0.041702922
202	0x3e3431b5	0.17597087
203	0xbe354381	-0.17701532
204	0xbe03a922	-0.12857488
205	0x3dea80d1	0.11450351
206	0xbdd15984	-0.10222152
207	0xbdf33fd9	-0.11877412
208	0x3d4b80fa	0.04968355
209	0xbea2eba6	-0.3182041
210	0x3e4efbe3	0.20213275
211	0xbe363431	-0.17793347
212	0xbf102aa5	-0.5631507
213	0xbe96f1e6	-0.2948143
214	0x3ddae788	0.10688692
215	0x3d0de4d8	0.03464207
216	0x3df7ccee	0.12099634
217	0xbc8b2d59	-0.016989397
218	0x3d95ec46	0.07320456
219	0xbdc3fdec	-0.09569916
220	0xbe2d83b6	-0.16944775
221	0x3de1a106	0.11017041
222	0x3959e775	0.00020780957
223	0x3b4e7749	0.0031504205
224	0xbdc4de91	-0.09612764
225	0xbc24edc5	-0.010066454
226	0xbe4572d5	-0.19282086
227	0x3d23ce05	0.039991397
228	0xbd18cbdf	-0.0373038
229	0x3dee38b9	0.11631913
230	0x3da4acaf	0.08040749
231	0x3e019cc2	0.12657455
232	0xbe09db65	-0.13462599
233	0xbe7399f3	-0.23789196
234	0x3bd2925d	0.0064261393
235	0x3def7df1	0.11693943
236	0x3d7da7fd	0.061927784
237	0x3e3567f3	0.17715435
238	0xbd678e12	-0.056531973
239	0xbe9b6dbe	-0.30357164
240	0x3c9c177b	0.019054165
241	0xbd33e877	-0.043922868
242	0xbd4e103a	-0.050308444
243	0x3d967159	0.07345838
244	0xbe89a80d	-0.26886025
245	0xbf2d8eaa	-0.67795813
246	0x3eb00318	0.3437736
247	0x3e52aa00	0.20572662
248	0xbd918fff	-0.07107543
249	0xbf108941	-0.5645943
250	0xbe260d03	-0.16215901
251	0x3e009e54	0.12560397
252	0xbd490cd7	-0.04908451
253	0xbc9cb334	-0.01912842
254	0xbd1ed6af	-0.038778957
255	0x3d4f9f49	0.050689016

weights_out.bias f4 [8]
0	0x3e2d20bc	0.16907018
1	0xbe266cde	-0.16252467
2	0x3ce3bbcf	0.027799515
3	0xbe359630	-0.17733073
4	0xbc93efdb	-0.018058708
5	0x3d0ef600	0.034902573
6	0xbb617a43	-0.003440515
7	0xbdd8d082	-0.10586645
