EDA/Notebooks/deep_learning_models/DR_models/CNN/cnn(Autoencoders)_portfolio_model.pth (torch, 250597 bytes, 9 tensors)

conv1.weight f4 [64, 7, 3]
0	0xbe549320	-0.20759249
1	0x3c9342fc	0.017976277
2	0xbe53dc43	-0.20689492
3	0xbdf8258e	-0.12116538
4	0x3e590d31	0.21196438
5	0x3ca1f798	0.019771382
6	0x3e270bab	0.16313045
7	0xbd3ef554	-0.046620682
8	0xb9c27e15	-0.00037096502
9	0xbd0b1dec	-0.033964083
10	0x3cbd811a	0.02313285
11	0xbdba5bd1	-0.09099544
12	0xbd425ef4	-0.047453836
13	0x3da82395	0.08209912
14	0xbd946459	-0.07245702
15	0xbd179c63	-0.037014376
16	0x3d9c468a	0.07630642
17	0xbdb7a11d	-0.08966277
18	0x3e58a560	0.21156836
19	0xbcdbd110	-0.026833087
20	0xbcfdabc0	-0.030965686
21	0x3b11b8b6	0.002223534
22	0xbe124229	-0.1428305
23	0x3a38769e	0.00070367183
24	0xbe3c41ec	-0.18384522
25	0xbd00141e	-0.031269185
26	0xbd34ce73	-0.044142198
27	0xbddc08e8	-0.10743886
28	0xbe0c7d53	-0.13719682
29	0xbdfa9026	-0.122345254
30	0xbdb1a3af	-0.08673798
31	0x3e6b7860	0.22995138
32	0xbdeb5166	-0.11490135
33	0xbe30bbec	-0.17259187
34	0x3e6b9ba9	0.23008598
35	0x3c603398	0.013684176
36	0x3c8967b3	0.01677308
37	0x3cfb94da	0.030710626
38	0x3dea0eab	0.11428579
39	0x3d47b06a	0.048752226
40	0x3ddee2f4	0.108831316
41	0x3d78bb0c	0.060725257
42	0xbe2a449a	-0.16627732
43	0x3dcde3b6	0.10053198
44	0xbcd9ce78	-0.02658771
45	0xbd8f335f	-0.0699222
46	0xbe727c84	-0.23680311
47	0xbe1c8ef9	-0.15288915
48	0x3dcde685	0.10053734
49	0xbceece5c	-0.029151134
50	0x3e424f3c	0.18975538
51	0xbd58c88f	-0.052925643
52	0x3cf1158b	0.029429218
53	0xbe7b10df	-0.24518155
54	0x3e037eef	0.1284139
55	0x3d7fcebc	0.062453017
56	0xbe20588e	-0.15658781
57	0xbd4dfc85	-0.05028965
58	0x3e08d4ee	0.13362476
59	0xbe3463e1	-0.17616226
60	0x3d625f59	0.05526671
61	0xbe068783	-0.13137631
62	0x3d873876	0.06602566
63	0xbcd2ae7e	-0.02571797
64	0x3dd86ae2	0.10567261
65	0xbe0ea267	-0.13929139
66	0xbe16016d	-0.14648981
67	0xbd0e2c8d	-0.034710456
68	0xbe5640da	-0.20923176
69	0xbd811c72	-0.06304254
70	0xbd94028f	-0.072270505
71	0x3e37af93	0.1793807
72	0xbdfb63c2	-0.12274887
73	0xbd300c77	-0.042980637
74	0x3df0203d	0.11724899
75	0x3e3f6164	0.18689495
76	0x3d4c9513	0.049946856
77	0xbdc0faf1	-0.09422863
78	0x3e7dc410	0.24781823
79	0xbe25a3e7	-0.16175805
80	0x3e4c75b6	0.19966778
81	0xbe4e69cf	-0.2015755
82	0x3e03f9dc	0.12888283
83	0xbb40346a	-0.0029328116
84	0x3c28c7d2	0.010301547
85	0xbc9fab63	-0.019490903
86	0x3c274410	0.010209098
87	0xbd146403	-0.03622819
88	0x3bff7c31	0.007796787
89	0x3e39d802	0.18148807
90	0x3d68b36d	0.05681174
91	0xbe173d8d	-0.14769574
92	0xbe32df1b	-0.1746792
93	0x3e1fd416	0.15608248
94	0xbc5a1d85	-0.013312702
95	0x3dfd9ce0	0.12383437
96	0xbabebdc7	-0.0014552408
97	0xbe2484a8	-0.1606623
98	0x3e56b4d7	0.20967422
99	0x3e01757a	0.1264247
100	0x3dd028a0	0.101639986
101	0xbe486cdd	-0.19572778
102	0x3ddc0dbb	0.107448064
103	0xbc85bd69	-0.01632567
104	0x3da9858b	0.082774244
105	0xbda198e1	-0.078904875
106	0xbdcf27da	-0.10115023
107	0xbe3ba67f	-0.18325232
108	0x3e23fae5	0.16013677
109	0x3cd38760	0.025821388
110	0xbd78fa2f	-0.06078547
111	0x3d6d3e1c	0.05792056
112	0x3e01696e	0.12637874
113	0xbd70c40f	-0.058780726
114	0x3d48b27b	0.048998337
115	0x3e3ad210	0.18244195
116	0xbcf08782	-0.02936149
117	0x3e18cf9a	0.14922944
118	0x3da253ac	0.079261154
119	0x3e0b32ad	0.1359355
120	0x3e0f5b3c	0.13999647
121	0x3e70026e	0.23438427
122	0xbd5fd416	-0.05464562
123	0x3cd8e243	0.026475077
124	0x3e39caf9	0.18143834
125	0xbe1e3430	-0.15449595
126	0x3e062319	0.13099326
127	0xbe423194	-0.18964225
128	0xbde9f982	-0.11424543
129	0x3a686369	0.0008864911
130	0x3d2cc290	0.042177737
131	0x3d70cae7	0.058787253
132	0xbe29777c	-0.16549486
133	0xbbb0b465	-0.0053925985
134	0xbd76362c	-0.060110256
135	0xbe58f727	-0.21188031
136	0xbe869f8a	-0.26293594
137	0x3ce838c8	0.028347388
138	0xbdb8648c	-0.09003553
139	0xbda6e682	-0.081494346
140	0xbe06ba2c	-0.13156956
141	0xbe0e2b72	-0.1388376
142	0x3d703b74	0.05865045
143	0xbe4098f7	-0.18808351
144	0x3dbf7ce1	0.09349991
145	0x3e4d71f6	0.20063004
146	0x3e57593d	0.21030135
147	0x3e2f9c88	0.17149556
148	0xbde6c4a0	-0.11267972
149	0xbdb9832f	-0.090582244
150	0xbd30ff34	-0.04321213
151	0xbe1fee14	-0.15618163
152	0x3e13878b	0.14407174
153	0x3d7e50da	0.062088825
154	0xbda45055	-0.080231346
155	0x3d8119f8	0.06303781
156	0xbe496c06	-0.19670114
157	0x3e054617	0.13015018
158	0x3e20f920	0.15720034
159	0x3d7736af	0.060354885
160	0xbe11ee9a	-0.14251176
161	0x3dc5b1b4	0.09653035
162	0x3e4e1569	0.20125355
163	0x3ad94ddc	0.001657899
164	0xbe4bf290	-0.19916749
165	0x3e252724	0.16128212
166	0x3d0944d4	0.033512905
167	0xbe022e02	-0.12712863
168	0xbda63ad5	-0.0811669
169	0x3d1c097c	0.038094983
170	0x3d857304	0.06516078
171	0x3ddb47ee	0.10707079
172	0x3e63c6c5	0.22243793
173	0x3d701316	0.05861195
174	0xbe2373ea	-0.15962186
175	0x3e094066	0.13403472
176	0x3dd45092	0.1036693
177	0x3d9575a2	0.07297827
178	0x3c85d3dc	0.016336374
179	0xbe487fde	-0.19580027
180	0xbe3e2ede	-0.18572566
181	0x3dec14c7	0.115274005
182	0x3d73fb22	0.05956567
183	0xbda3d10d	-0.07998858
184	0xbdcdadaf	-0.10042893
185	0x3dce2292	0.100651875
186	0x3e55bc42	0.20872596
187	0xbe2ecfae	-0.17071411
188	0xbde9ed84	-0.11422256
189	0x3daabe35	0.0833706
190	0x3d013580	0.031545162
191	0xbe59fc7e	-0.21287724
192	0x3c0fbe2d	0.008773369
193	0xbe766d46	-0.24065122
194	0xbe271e76	-0.16320214
195	0x3d8320b2	0.064027205
196	0x3d70a778	0.05875346
197	0xbdb508ec	-0.08839592
198	0x3e533156	0.20624289
199	0x3e49924f	0.19684719
200	0xbdf0fb04	-0.117666274
201	0xbdc62a63	-0.096760534
202	0x3e70d4f5	0.23518737
203	0x3e0a67a1	0.13516094
204	0x3e7ef231	0.24897076
205	0x3e26206b	0.16223304
206	0x3e659531	0.22420193
207	0x3e171d48	0.14757264
208	0xbdfa030a	-0.12207611
209	0x3dc377c5	0.095443286
210	0xbe13f8ae	-0.14450333
211	0x3e3779b4	0.1791752
212	0x3d2af0e0	0.041733623
213	0x3db11789	0.08647067
214	0xbe15a273	-0.1461275
215	0xbe6cb88c	-0.23117274
216	0x3e18f437	0.1493691
217	0xbd480e1a	-0.048841573
218	0xbdd539f9	-0.10411448
219	0x3dd6ee08	0.104946196
220	0xbe01cce9	-0.12675823
221	0xbe4e4c46	-0.20146284
222	0x3e08e2f3	0.13367824
223	0xbca2e1ef	-0.019883124
224	0xbe008545	-0.12550838
225	0xbd8e75f5	-0.06956092
226	0xbd9d4270	-0.076786876
227	0x3d81e598	0.0634262
228	0xbd43349a	-0.047657587
229	0xbdc0b886	-0.09410195
230	0xbd861b8e	-0.065482244
231	0x3e1bfcb5	0.15233119
232	0xbe21df94	-0.15807945
233	0xbe08c815	-0.13357575
234	0xbe87e6a4	-0.26543152
235	0x3dd2b0a0	0.10287595
236	0xbe7f9b94	-0.24961692
237	0xbe2ccc84	-0.16874892
238	0xbdf4e15a	-0.11957045
239	0x3e06590a	0.13119903
240	0x3db477d5	0.08811919
241	0xbde39d22	-0.11113955
242	0x3e0b5452	0.13606384
243	0x3e035b85	0.1282788
244	0xbdc8fbe3	-0.098136686
245	0xbc2ffe02	-0.0107417125
246	0x3e20031c	0.15626186
247	0x3c83037c	0.015992872
248	0x3dec4073	0.1153573
249	0xbb373b70	-0.0027959011
250	0x3dc005eb	0.09376129
251	0xbdb66171	-0.08905304
252	0xbd859810	-0.06523144
253	0x3e2a92e3	0.16657595
254	0xbd3b6450	-0.045749962
255	0x3e3d27a9	0.1847216

conv1.bias f4 [64]
0	0xbcfe22e6	-0.0310225
1	0xbdf57c56	-0.11986606
2	0xbe5344d7	-0.20631729
3	0xbe042004	-0.12902838
4	0x3d7cd645	0.06172778
5	0x3d570ef6	0.052504502
6	0x3e0b83ea	0.1362454
7	0xbbc9e489	-0.0061612767
8	0xbe356025	-0.17712457
9	0x3e66aaab	0.22526042
10	0xbdd75ce9	-0.10515768
11	0xbe551e32	-0.208123
12	0x3d49de81	0.049284462
13	0xbe809501	-0.2511368
14	0x3c177e0d	0.009246361
15	0xbe7568c6	-0.23965749
16	0xbe3e1139	-0.18561257
17	0x3da76f4a	0.081755236
18	0xbe143be4	-0.14475971
19	0x3dd3fc94	0.1035091
20	0xbd75b057	-0.059982624
21	0xbd5d272c	-0.053992435
22	0xbe64bdde	-0.22338054
23	0xbe5385c1	-0.20656492
24	0xbe711964	-0.23544842
25	0xbd42cb11	-0.04755694
26	0x3e581c0e	0.21104452
27	0xbdd19052	-0.10232605
28	0xbe2ed3fd	-0.17073055
29	0x3cebb6b2	0.02877364
30	0x3de1e803	0.11030581
31	0xbd0b485a	-0.034004547
32	0x3dee93c7	0.1164928
33	0xbe1f93bf	-0.15583704
34	0x3da3c261	0.07996059
35	0x3c7b9356	0.015354952
36	0xbc172217	-0.009224436
37	0xbc2e8737	-0.010652355
38	0xbe3e9243	-0.18610482
39	0x3de74994	0.11293331
40	0x3e34b84b	0.17648427
41	0x3ddec354	0.108771
42	0x3e100137	0.14062963
43	0xbd84adc5	-0.064784564
44	0xbe6947a0	-0.22781229
45	0xbdd6f6f7	-0.104963236
46	0xbe38fef8	-0.18066013
47	0xbe0dd566	-0.13850936
48	0x3d65fb1f	0.05614769
49	0xbd251f5a	-0.040313102
50	0x3ca1cb6b	0.019750318
51	0xbdc299c0	-0.09501982
52	0xbd65d592	-0.05611188
53	0xbdab9a50	-0.08379042
54	0xbd34e430	-0.04416293
55	0x3b8b500a	0.0042514848
56	0xbdb10f01	-0.0864544
57	0xbd1a2397	-0.037631597
58	0xbdddd201	-0.10831071
59	0xbd7797bb	-0.060447436
60	0xbe65d913	-0.22446088
61	0xbe169fdc	-0.14709419
62	0xbe2a7586	-0.16646394
63	0x3e1452e0	0.1448474

conv2.weight f4 [32, 64, 3]
0	0x3b19868f	0.002342615
1	0xbd0024b8	-0.031285018
2	0xbd780faa	-0.060561813
3	0xbd9188c8	-0.07106167
4	0xbd188f20	-0.03724587
5	0xbd97aad6	-0.07405631
6	0xbda7fe40	-0.08202791
7	0x3d45ceda	0.048292972
8	0x3d0dabdc	0.034587726
9	0x3d4ae19f	0.049531575
10	0xbcfb012d	-0.03064021
11	0xbce6b2d2	-0.02816144
12	0xbd500d8b	-0.050794166
13	0x3d1b0b60	0.037852645
14	0xbd96fbe5	-0.07372264
15	0x3c9b913a	0.018990148
16	0xbdc22ff8	-0.094818056
17	0xbd8df3a9	-0.0693124
18	0x3d08b138	0.033372134
19	0x3d8890ce	0.06668244
20	0xbce932c5	-0.028466592
21	0xbd58d4c9	-0.052937303
22	0x3d1f3a64	0.038874045
23	0x3cb00905	0.021488676
24	0x3d4736d7	0.048636284
25	0xbcee2ab1	-0.029073091
26	0xbd563ac4	-0.052302137
27	0xbc992670	-0.018695086
28	0xbd908a0f	-0.070575826
29	0xbd39b568	-0.045339018
30	0xbd11e846	-0.035621904
31	0xbd5c76af	-0.053824123
32	0x3d37477b	0.044745903
33	0xbd8f8af2	-0.070089236
34	0x3d9e9b81	0.07744504
35	0x3d4b629c	0.049654588
36	0x3d4353cb	0.047687333
37	0x3b66f554	0.0035241442
38	0x3cf29b0a	0.029614944
39	0x3d0a7a34	0.03380795
40	0xbd73c81b	-0.059517007
41	0xbc463bcc	-0.012099218
42	0xbd3a9a1a	-0.04555712
43	0x3c4a6a0b	0.012354384
44	0xbdadcd66	-0.08486442
45	0xbd591ae5	-0.053004164
46	0xbd4bd904	-0.04976751
47	0xbd7751fd	-0.060380924
48	0xbcd43319	-0.025903272
49	0xbcd77c5c	-0.026304416
50	0xbd2dc807	-0.04242709
51	0x3d452ee2	0.048140414
52	0xbd6b3069	-0.057419214
53	0xbc99964a	-0.018748421
54	0x3d7a7007	0.061141994
55	0xbcc82e73	-0.024436211
56	0x3bab4442	0.005226643
57	0xbd3727cd	-0.04471569
58	0xbc494f99	-0.012287044
59	0x3cb9a883	0.02266336
60	0xbcfdd378	-0.030984625
61	0xbd88c9d9	-0.066791244
62	0xbdace6cd	-0.08442459
63	0x3b72717e	0.0036993916
64	0x3c9f81e5	0.019471118
65	0x3d002b8c	0.03129153
66	0xbd3ea553	-0.046544384
67	0xbc53a3e8	-0.012917496
68	0xbd9fa720	-0.077955484
69	0x3d8da1e6	0.06915645
70	0x3c1050ee	0.008808358
71	0xbd4f0745	-0.050544042
72	0xbd986231	-0.074406035
73	0xbdb53ddc	-0.08849689
74	0xbd129336	-0.035784923
75	0x3d3dfa89	0.046381507
76	0xbca9097c	-0.020634405
77	0x3d12e519	0.035863016
78	0xbc1620a1	-0.009163053
79	0xbd277b21	-0.04088891
80	0xbaccecae	-0.0015634501
81	0xbcd98b3e	-0.026555654
82	0xbca68053	-0.020324862
83	0xbd059fd8	-0.032623142
84	0xbd03a345	-0.032138128
85	0xbd224aea	-0.039622225
86	0x3bff3469	0.00778823
87	0xbd01937c	-0.031634793
88	0x3c1f8bde	0.009737937
89	0xbd41ac66	-0.047283553
90	0xbd24ef1a	-0.040267088
91	0xbcc61507	-0.024179948
92	0xbca23c6e	-0.019804206
93	0xbda00089	-0.07812602
94	0xbccd3cd1	-0.025053414
95	0x3d5535bd	0.052053202
96	0xbd219cb0	-0.03945607
97	0xbdf0282f	-0.117264144
98	0xbdb84d9b	-0.08999177
99	0x3d6fa715	0.05850895
100	0x3d888330	0.06665647
101	0xba96ea32	-0.0011513887
102	0xbda660dc	-0.08123943
103	0xbdc1315f	-0.09433245
104	0x3d2fa569	0.042882357
105	0x3d89f5b6	0.06736319
106	0xbb079d62	-0.0020693173
107	0x3d890267	0.06689911
108	0x3d673142	0.05644346
109	0xbd09343f	-0.03349709
110	0xbda192f3	-0.078893565
111	0xbc2583d6	-0.010102233
112	0x3daf3be7	0.08556347
113	0x3db57a52	0.088612214
114	0xbd179037	-0.03700277
115	0xbd37e487	-0.044895675
116	0xbcadcf9a	-0.021217156
117	0xbd922f84	-0.07137969
118	0xbd8534ca	-0.06504209
119	0x3bf494fb	0.007464049
120	0x3cf5fbd3	0.030027306
121	0x3d804cd6	0.06264655
122	0xbbddd2b1	-0.006769501
123	0xbd5dd5b0	-0.054158866
124	0xbd60b11b	-0.0548564
125	0x3d2e25dd	0.042516578
126	0x3cab7499	0.020929622
127	0x3dc4c6d9	0.0960824
128	0xbc2aa749	-0.01041586
129	0x3d3810fe	0.04493808
130	0xbd92ebc2	-0.071738735
131	0x3cf270c6	0.02959479
132	0xbb0f4123	-0.0021858893
133	0xbc88b042	-0.016685609
134	0x3caf5a0c	0.021405242
135	0x3c076782	0.008264424
136	0x3cf1dadd	0.029523307
137	0x3d3baed9	0.045821045
138	0x3af8d69c	0.0018984857
139	0xbdbae5d2	-0.09125866
140	0xbd8ffb00	-0.07030296
141	0xbd866b58	-0.06563443
142	0x3d1db9b8	0.038507193
143	0xbcf5e8c6	-0.030018222
144	0x3dd02119	0.10162563
145	0x3c77b8c2	0.015119733
146	0x3dff4477	0.124642305
147	0xbd5e0683	-0.05420543
148	0x3d6d2c5b	0.05790363
149	0x3da1bcc7	0.078973345
150	0xbb8d3210	-0.0043089464
151	0xbd920842	-0.07130481
152	0xbbb4e70e	-0.005520708
153	0x3d32396d	0.043511797
154	0xbcf03f18	-0.02932696
155	0x3c12bc0e	0.008955969
156	0x3d993a9a	0.074818805
157	0xbd262178	-0.040559262
158	0xbd534ccf	-0.051586922
159	0xbdbee438	-0.09320873
160	0x3cbd252a	0.02308901
161	0xbcc4e874	-0.024036624
162	0xbd08a57e	-0.03336095
163	0xbd8a7552	-0.06760658
164	0xbbac4137	-0.0052567977
165	0x3d5756a6	0.05257287
166	0xbd45196b	-0.048119944
167	0xbc395b19	-0.011313223
168	0x3c4c3795	0.012464424
169	0xbd457a46	-0.048212312
170	0xbcc40ab9	-0.023930894
171	0x3cad8633	0.021182155
172	0xbd7f586c	-0.062340185
173	0xbd9110da	-0.07083292
174	0xbc2c1d19	-0.010504984
175	0xbd5c8ef3	-0.053847264
176	0x3cedc76a	0.029025752
177	0x3bc4e3bc	0.0060085934
178	0x3c2db94a	0.010603258
179	0x3d48e697	0.049048033
180	0xbda6efce	-0.08151208
181	0xbd014b21	-0.03156579
182	0xbd5700ca	-0.052490987
183	0xb99d1ca0	-0.000299667
184	0x3d0005be	0.031255476
185	0x3be5144d	0.0069909454
186	0xbbabbf11	-0.0052412827
187	0xbc13bebe	-0.009017644
188	0xbd22c6a6	-0.039740227
189	0x3d577abe	0.05260729
190	0x3d830d92	0.06399073
191	0x3c82bfd6	0.015960615
192	0x3c39f8ee	0.011350853
193	0xbcc2b58a	-0.023768205
194	0x3b914801	0.0044336324
195	0xbceb901a	-0.028755236
196	0xbc04a3eb	-0.008095722
197	0xbd76ee00	-0.06028557
198	0x3caccf87	0.02109505
199	0xbd85600f	-0.06512462
200	0x3b28a9b3	0.0025735914
201	0x3d4c091f	0.049813386
202	0xbd51ae06	-0.051191352
203	0x3d1f8813	0.03894813
204	0xbdc63fc8	-0.09680134
205	0xbdddcbaa	-0.108298615
206	0xbdba7db0	-0.09106004
207	0x3dbf47ca	0.093398646
208	0xbcd0dd90	-0.025496274
209	0x3d861a38	0.065479696
210	0xbd9b0338	-0.07568973
211	0xbd357d68	-0.04430905
212	0xbdd095f6	-0.10184853
213	0xbd671f60	-0.056426406
214	0x3d8aaab8	0.06770843
215	0x3d183b45	0.0371659
216	0xbdb859ef	-0.090015285
217	0xbcb0730a	-0.02153923
218	0xbdcedcc9	-0.10100705
219	0x3c9d0d26	0.019171309
220	0x3cf39d2e	0.029738035
221	0x3c910355	0.017701784
222	0x3c2be4de	0.010491578
223	0xbd7be0e4	-0.06149377
224	0xbd6a9323	-0.057269227
225	0x3d3b05be	0.045659773
226	0xbc691b9e	-0.014227776
227	0x3d8f833f	0.07007455
228	0x3d3a8cf8	0.045544595
229	0xbd41811e	-0.047242276
230	0xbd85b336	-0.065283224
231	0xbd83db3a	-0.064382985
232	0x3c13706c	0.008998971
233	0x3d0bbbd0	0.03411466
234	0x3c8eaed2	0.017417345
235	0x3ced2877	0.02894996
236	0x3c447ef3	0.011993158
237	0xbd372da7	-0.04472127
238	0xbd788425	-0.060672898
239	0xbd9399da	-0.07207079
240	0xbcf24ed0	-0.029578596
241	0x3d00fa01	0.031488422
242	0x3d217ab8	0.039423674
243	0xbe4c726c	-0.19965523
244	0xbde9c441	-0.114143856
245	0xbe35fa47	-0.17771254
246	0x3c896271	0.016770573
247	0xbcfbe967	-0.030750943
248	0x3ba7b243	0.005117686
249	0xbd5ed227	-0.054399636
250	0x3d7e4980	0.062081814
251	0x3d27669f	0.04086935
252	0xbcee050d	-0.029055143
253	0xbce8271a	-0.028338958
254	0x3cc78929	0.024357395
255	0xbcbf13de	-0.023324903

conv2.bias f4 [32]
0	0x3d430b33	0.047618102
1	0xbca0e275	-0.019639233
2	0x3b7d9b08	0.0038697142
3	0x3d477f06	0.048705123
4	0xbc8a130f	-0.016854791
5	0xbce013c4	-0.027353175
6	0x3d00f281	0.03148127
7	0xbd29e505	-0.041478176
8	0x3cbd7918	0.023129031
9	0x3d3257b1	0.04354066
10	0xbdc04362	-0.09387852
11	0x3c83e2f3	0.016099429
12	0x3d58d949	0.052941594
13	0xbd869557	-0.06571453
14	0x3d8659fc	0.06560132
15	0x3c31523a	0.010822827
16	0xbd32027b	-0.043459397
17	0xbaa7216f	-0.0012751053
18	0x3d37f5bf	0.044912096
19	0x3d46db97	0.04854926
20	0xbc836569	-0.016039567
21	0x3cf3906a	0.029731948
22	0x3bfe33d8	0.007757645
23	0x3d0cda59	0.03438792
24	0x3c797023	0.015224489
25	0xbc930b4c	-0.017949723
26	0x3c9e4c90	0.019323617
27	0xbd9d4d01	-0.07680703
28	0xbc5b78fa	-0.013395542
29	0xbc041b57	-0.008063159
30	0xb882b76c	-6.233048e-05
31	0xbce2541a	-0.027627993

fc1.weight f4 [64, 832]
0	0x3d88afaf	0.06674134
1	0x3d53a9a7	0.051675465
2	0x3d1d4d84	0.038404003
3	0x3ce3bd8b	0.027800342
4	0x3c97203e	0.018447991
5	0x3d02b50f	0.031910952
6	0x3c9912f0	0.018685788
7	0x3ced8334	0.028993227
8	0x3c1f92d1	0.009739594
9	0x3cf6afc0	0.030113101
10	0x3cde8142	0.027161244
11	0x3b944f10	0.0045260265
12	0xb9c39fbf	-0.00037312318
13	0x3d47eea6	0.048811577
14	0x3cf664b6	0.03007732
15	0x3d202a97	0.039103117
16	0x3d7025ea	0.058629908
17	0x3c8d3c9c	0.017240815
18	0x3cf15736	0.02946053
19	0x3ccb070f	0.02478364
20	0x3d9b383f	0.075790875
21	0x3d4cd628	0.050008923
22	0x3c67d214	0.014149208
23	0x3d96b730	0.07359159
24	0x3cc490a6	0.023994755
25	0x3cf3172d	0.029674137
26	0xbc0655c1	-0.008199156
27	0xbbb92d59	-0.005651158
28	0xbc86f6d6	-0.016475122
29	0x3b0f7e3c	0.002189531
30	0xbc745dd2	-0.014914947
31	0xbc22000f	-0.009887709
32	0x3c634f9b	0.01387396
33	0x3b64bd10	0.003490273
34	0x3cddaf92	0.027061258
35	0x3c215a4c	0.009848189
36	0x3d2ff07d	0.042953957
37	0x3cbdd70d	0.023173833
38	0x3d0fc216	0.035097204
39	0x3c232abd	0.00995892
40	0x3d2a43e5	0.041568656
41	0xbca538e0	-0.020168722
42	0xbc10b7f6	-0.008832922
43	0x3d9f5ac0	0.07780981
44	0x3d9974d8	0.07492989
45	0x3d4414cb	0.047871392
46	0x3d9306e4	0.07179049
47	0x3cd04bec	0.025426827
48	0xbd5aba93	-0.053400587
49	0xbd43ef37	-0.047835555
50	0xbd75c7c8	-0.06000498
51	0xbd6aa173	-0.057282876
52	0xbcf32ced	-0.029684508
53	0xbd8c65ca	-0.06855352
54	0xbdab2911	-0.08357442
55	0xbd0d8924	-0.034554616
56	0xbc9830d4	-0.01857797
57	0xbcd8e632	-0.026476953
58	0xbc845a62	-0.01615638
59	0xbc9bc05c	-0.019012623
60	0xbbc1d902	-0.005915762
61	0xbd795891	-0.06087548
62	0xbd126fad	-0.035751034
63	0xbd2b015e	-0.04174935
64	0xbd3d4fad	-0.046218563
65	0x3ced8672	0.028994773
66	0x3bb83605	0.005621674
67	0xbd464043	-0.04840113
68	0x3c8fc244	0.017548688
69	0x3d363a46	0.044489168
70	0x3cdbb025	0.02681739
71	0x3d11720d	0.035509158
72	0x3c48a193	0.012245554
73	0xbd55f3c2	-0.05223442
74	0xbd5c4fa9	-0.053786907
75	0xbcd3c429	-0.025850372
76	0x3b1235d8	0.0022309925
77	0xbd4437c9	-0.047904763
78	0xbd20105b	-0.039078098
79	0xbd8a47a9	-0.06751949
80	0xbd9aa846	-0.07551627
81	0xbd66d7a8	-0.05635801
82	0xbdea5e8d	-0.114438154
83	0xbd852fba	-0.06503244
84	0xbdb1b238	-0.08676571
85	0xbdb489c0	-0.08815336
86	0xbd41444a	-0.047184266
87	0xbae67fc0	-0.001758568
88	0xbd0abbf5	-0.033870656
89	0xbd886fe3	-0.06661966
90	0xbdb2e06b	-0.087342106
91	0xbd1bc927	-0.03803363
92	0xbd813fe3	-0.063110135
93	0x3c738e65	0.0148654925
94	0xbd0643a2	-0.032779343
95	0xbccdcfba	-0.025123466
96	0xbd824584	-0.06360915
97	0xbd4edd6c	-0.050504133
98	0xbdab6cbd	-0.083703496
99	0xbcefb156	-0.029259365
100	0xbd9cb346	-0.07651381
101	0xbdb51d6b	-0.08843502
102	0xbd78b18c	-0.060716197
103	0xbd972515	-0.0738012
104	0xbb9957cf	-0.004679657
105	0x3d23a505	0.039952297
106	0xbc4668ab	-0.012109916
107	0x3c8a5cc3	0.016889935
108	0x3c8e0125	0.01733453
109	0x3d1090e4	0.03529443
110	0x3c058133	0.008148479
111	0x3cae86c5	0.021304497
112	0xbb22edc1	-0.002486095
113	0x3b8a69d9	0.004224044
114	0xbc73ef9e	-0.014888672
115	0x3c2659a7	0.010153211
116	0x3c801412	0.01563457
117	0xbb7b1634	-0.0038312795
118	0x3c8c18e8	0.01710172
119	0xbc426d59	-0.011866891
120	0x3ccaadd9	0.0247411
121	0x3cbeea04	0.023304947
122	0xbb89f50d	-0.0042101205
123	0x3ca8167b	0.020518532
124	0x3d4c8716	0.049933515
125	0x3bde8434	0.006790662
126	0x3cac8e8c	0.021064065
127	0x3d03ee46	0.032209657
128	0x3cad3acc	0.0211462
129	0x3d383607	0.0449734
130	0xbb3269f3	-0.0027223795
131	0x3b7b05e7	0.0038303079
132	0x3b54536a	0.0032398351
133	0x3be5fcfa	0.0070186825
134	0x3cafd8aa	0.021465618
135	0x3d0c85b0	0.03430718
136	0xbbda40be	-0.00666055
137	0xbca8ed6c	-0.020621024
138	0x3d2b6d23	0.041852128
139	0x3d2007cd	0.03906994
140	0x3c5304f8	0.012879603
141	0xbcd96ae1	-0.026540222
142	0x3cbf06b7	0.023318632
143	0xbaef8a9e	-0.0018275564
144	0xbbdc91b5	-0.006731237
145	0xbd3a2125	-0.045441765
146	0xbd30bb3b	-0.043147307
147	0xbccfa56b	-0.025347432
148	0xbd5bf711	-0.053702418
149	0xbccd43fe	-0.025056835
150	0xbcb789ac	-0.022404514
151	0x3c481961	0.012213082
152	0xbd52a5ed	-0.05142777
153	0xbd038fe9	-0.032119665
154	0x3c6ba676	0.014382949
155	0xbd02b7a9	-0.031913433
156	0xbc1329fa	-0.008982176
157	0xbd16105c	-0.036636695
158	0x3b2c4a71	0.0026289488
159	0xbc2ab2c9	-0.010418602
160	0xbc5df4b1	-0.0135471085
161	0xbc080450	-0.008301809
162	0xbcadbda6	-0.021208595
163	0xbccbeb30	-0.02489242
164	0xbd55be20	-0.05218327
165	0xbcb235e1	-0.021754207
166	0x3c0d43df	0.008622139
167	0x3cb74295	0.022370616
168	0xbc73eccd	-0.014888001
169	0xbc3b2556	-0.011422476
170	0xbc97682e	-0.018482294
171	0xbd19975d	-0.037497867
172	0xbc2ea8a2	-0.010660322
173	0xbc4274bd	-0.011868653
174	0xbd19b2ae	-0.037523918
175	0xbd02cbcf	-0.03193265
176	0xbc8640d2	-0.01638833
177	0xbda579ca	-0.0807987
178	0xbd90335b	-0.07041045
179	0xbd8804e1	-0.066415556
180	0xbda9fc36	-0.083000585
181	0xbdbeac41	-0.093101986
182	0x3cab07c6	0.02087773
183	0x393ddb5e	0.00018106165
184	0x3d1cc0ce	0.03826981
185	0x3d505448	0.050861627
186	0x3cd502b0	0.026002258
187	0x3d29fcff	0.04150104
188	0x3d7ea62e	0.0621702
189	0x3d470168	0.048585325
190	0x3d1d6df1	0.038434926
191	0x3d3525fa	0.04422567
192	0x3d44f3cc	0.048084065
193	0x3d49cf56	0.049269997
194	0x3d7a52e5	0.06111421
195	0xbc35282e	-0.011056943
196	0x3becf5c7	0.0072314474
197	0x3cc407c9	0.023929494
198	0x3d15dfd0	0.036590397
199	0xbc50b87e	-0.012739299
200	0x3cda8b38	0.026677713
201	0x3a8fd405	0.0010973221
202	0xbcd1b5eb	-0.02559944
203	0xbca90b39	-0.020635234
204	0x3be831a4	0.0070859957
205	0x3ca64a19	0.020299004
206	0x3d1e5aff	0.038661
207	0x3c179372	0.009251462
208	0xbd91b9e7	-0.07115536
209	0xbdb63e3d	-0.0889859
210	0xbd33afb6	-0.043868743
211	0xbe13a53e	-0.14418504
212	0xbe0dcc79	-0.13847531
213	0xbdec4921	-0.11537386
214	0xbdfcae08	-0.12337881
215	0xbdbfe376	-0.093695566
216	0xbd19fb3b	-0.037593108
217	0xbd8a48ba	-0.06752153
218	0xbdc1fcab	-0.09472021
219	0xbd66ada5	-0.056317944
220	0x3c3b7d36	0.011443427
221	0xbcc6d8a3	-0.024273222
222	0xbcc51e95	-0.024062434
223	0x3c0972dd	0.008389202
224	0x3c93bcee	0.018034425
225	0xbd293bfc	-0.04131697
226	0xbcd06a00	-0.02544117
227	0xbd036075	-0.03207441
228	0xbc5c4375	-0.013443817
229	0x3d33e147	0.043916013
230	0xbd3e0697	-0.046393003
231	0xbc8e1af3	-0.017346835
232	0x3c890e41	0.01673043
233	0x3c4cd752	0.012502508
234	0xbcf4eb68	-0.029897407
235	0xbd10d002	-0.03535462
236	0xbd97d816	-0.07414262
237	0xbd69f6d8	-0.057120174
238	0xbd0c5941	-0.034264807
239	0xbd1267ef	-0.03574365
240	0xbd0e8834	-0.034797862
241	0xbb6820a9	-0.0035419858
242	0xbaeb2de3	-0.0017942752
243	0xbc3fd76a	-0.011709074
244	0xbba24a11	-0.004952677
245	0x3c80f40c	0.01574137
246	0x3da3dc88	0.080010474
247	0x3d70e886	0.0588155
248	0x3d03a571	0.0321402
249	0x3d178cdf	0.03699958
250	0x3c5b47aa	0.013383785
251	0xbbd3c5f5	-0.0064628073
252	0x3be2ba14	0.006919155
253	0x3d80f477	0.06296628
254	0x3b91baf7	0.004447337
255	0xbb5ee30d	-0.0034009845

fc1.bias f4 [64]
0	0x3da86ef6	0.08224289
1	0x3da29bb3	0.079398535
2	0xbd29dbd6	-0.041469418
3	0x3d1e9f8c	0.038726375
4	0xbd0528e1	-0.03250969
5	0x3dca167b	0.09867569
6	0x3da3b087	0.07992654
7	0x3ccb1715	0.02479128
8	0xbd1d3aba	-0.038386084
9	0xbca85ed3	-0.020553028
10	0x3cebadfa	0.028769482
11	0xbc2d7290	-0.010586396
12	0x3bdb1f4d	0.006687081
13	0x3b9d6851	0.0048036953
14	0xbb508512	-0.0031817597
15	0x3d514a6a	0.051096357
16	0x3d1f304f	0.03886443
17	0x3cded0dc	0.027199201
18	0xbd9fa897	-0.07795828
19	0x3d736830	0.059425533
20	0x3ced9979	0.029003846
21	0x3cae07ca	0.021243948
22	0xbb23ecef	-0.002501305
23	0x3d448885	0.047981758
24	0xb908218e	-0.00012982471
25	0x3bd4af75	0.0064906427
26	0xbcc9ad8b	-0.024618885
27	0xbd10516d	-0.035233904
28	0x3df15da6	0.1178544
29	0x3e77a886	0.2418538
30	0xbc3c3fe0	-0.011489838
31	0x3da24c98	0.07924765
32	0xbc913dc9	-0.017729657
33	0xbb2922ad	-0.0025808022
34	0x3d3adaab	0.045618694
35	0x3cc3a3a7	0.023881746
36	0xbc4bcbdf	-0.012438743
37	0x3d094f1f	0.03352272
38	0x3dfae808	0.12251288
39	0x3da5b22c	0.08090624
40	0x3a9528b6	0.0011379931
41	0x3dc91112	0.09817709
42	0xbd0293e9	-0.03187934
43	0xbd0acd7b	-0.033887368
44	0x3c8630cf	0.016380696
45	0x3dfb1daa	0.12261517
46	0xbd1d4d57	-0.038403835
47	0x3d359572	0.044331975
48	0xbd977bed	-0.07396684
49	0x3dafc491	0.08582414
50	0x3d85cc22	0.06533076
51	0xbcae30d2	-0.021263514
52	0x3dd369a0	0.10322881
53	0x3c9e1b78	0.019300207
54	0x3dc01fce	0.09381066
55	0x3daa4498	0.083138645
56	0x3d8d625a	0.06903525
57	0xbbafbd63	-0.005363153
58	0xbc2927eb	-0.010324459
59	0xbc1e0463	-0.009644601
60	0x3bb178d6	0.005416016
61	0xbcdb0ea4	-0.02674038
62	0x3dc6fede	0.09716581
63	0xbd3d7c67	-0.046261217

sharpe_out.weight f4 [1, 64]
0	0xbca8c02e	-0.02059945
1	0x3b4467f1	0.002996918
2	0x3dc874fa	0.097879365
3	0x3cccbe9c	0.024993233
4	0xbdd09797	-0.101851635
5	0x3c4e5bb8	0.01259511
6	0x3ce7e276	0.028306227
7	0x3d580674	0.05274053
8	0xbdaa705a	-0.083222106
9	0x3dd3900a	0.10330208
10	0xbc455769	-0.012044766
11	0xbd337fd0	-0.043823063
12	0xbc70244c	-0.014657091
13	0xba3d94ec	-0.0007231969
14	0xbbeb5be1	-0.0071825837
15	0x3d27bdcd	0.040952493
16	0xbd4fae0e	-0.0507031
17	0xbd6e9666	-0.0582489
18	0xbd32a19f	-0.043611165
19	0x3cf3e7d9	0.02977364
20	0xbd87db04	-0.06633571
21	0x3cea1a12	0.028576884
22	0xbda607aa	-0.081069306
23	0xbd536a6d	-0.051615167
24	0x3d17f12e	0.03709524
25	0xbc3760f7	-0.011192552
26	0xbc310aac	-0.010805767
27	0xbdde9ff2	-0.10870351
28	0xbd59331c	-0.053027257
29	0x3b8b61b9	0.004253593
30	0xbc8e0f0e	-0.017341163
31	0x3b8a72ef	0.004225127
32	0x3d29785b	0.041374546
33	0x3d4e4ce9	0.050366316
34	0xbc8fd322	-0.01755673
35	0x3d0fb637	0.035085883
36	0xbc35cc64	-0.011096094
37	0x3c014a86	0.007891303
38	0xbc5b8e07	-0.013400561
39	0x3c078e31	0.008273647
40	0xbda16868	-0.07881242
41	0x3b9071ff	0.0044081206
42	0xbddd5e9e	-0.108090624
43	0x3de294e4	0.11063555
44	0x3d3e52aa	0.046465553
45	0x3c24872a	0.010041991
46	0x3d9b55ab	0.07584699
47	0xbd45cf55	-0.04829343
48	0xbafbcb74	-0.0019210414
49	0x3ca2bde6	0.019865941
50	0x3c4891f3	0.012241828
51	0x3d5852e4	0.052813426
52	0xbbb2539c	-0.005442096
53	0xbcb48bb9	-0.022039281
54	0xbc6627ff	-0.014047622
55	0x3be1f132	0.006895208
56	0x3c816ad5	0.015798012
57	0xbd19d48b	-0.037556212
58	0xbda33425	-0.0796893
59	0xbcd47a53	-0.025937235
60	0xbb8611b2	-0.004091465
61	0xbccf4eef	-0.025306193
62	0xbc550bcb	-0.0130033
63	0xbdadc64a	-0.08485086

weights_out.weight f4 [8, 64]
0	0xbe9b05ee	-0.30277961
1	0xbe9e44de	-0.30911916
2	0xbdba1eb2	-0.09087886
3	0xbd2b60de	-0.041840427
4	0x3e208946	0.15677366
5	0x3df9011a	0.12158413
6	0xbcc81bc5	-0.024427304
7	0xbd5e4a54	-0.054270104
8	0xbd825f7e	-0.0636587
9	0x3c05668f	0.008142128
10	0xbe29d9ef	-0.16587041
11	0x3d9f5eb9	0.07781739
12	0x3e8b8514	0.27249968
13	0x3ded08d5	0.1157395
14	0x3d2da6a8	0.042395264
15	0x3d74e685	0.059790153
16	0xbeb54882	-0.35406882
17	0xbe71d1cf	-0.23615192
18	0x3e992457	0.29910538
19	0x3e00bf1d	0.12572904
20	0xbe5c7e18	-0.21532476
21	0x3c732901	0.014841319
22	0xbd5a7087	-0.05332997
23	0xbd30bb27	-0.043147232
24	0xbde7149a	-0.11283226
25	0x3e7054a7	0.23469792
26	0x3d6aafc1	0.05729652
27	0x3d16f82e	0.036857776
28	0xbe61c735	-0.22048648
29	0xbe0f749b	-0.14009325
30	0xbc006605	-0.007836823
31	0x3e7459ca	0.23862377
32	0xbe1f5598	-0.15559995
33	0xbc9f30c4	-0.019432433
34	0xbec5ce59	-0.38633993
35	0xbd8d04f1	-0.06885708
36	0x3dea8436	0.114509985
37	0x3dc808a5	0.09767274
38	0x3cb8738e	0.022516038
39	0x3d63cb8d	0.055614043
40	0x3ddf0caa	0.10891087
41	0x3c54e203	0.0129933385
42	0x3ded5df4	0.11590186
43	0xbddb3bbe	-0.10704754
44	0xbdc348b7	-0.09535354
45	0x3e225870	0.15854049
46	0x3d8a0298	0.06738776
47	0x3d9ba947	0.076006465
48	0xbdc7351b	-0.09726926
49	0x3d9c4be9	0.07631666
50	0x3dd9e281	0.10638905
51	0x3da7ce22	0.081936136
52	0xbec1ab7c	-0.37826145
53	0xbdcca2a1	-0.099919565
54	0xbe72c7aa	-0.23708978
55	0xbd43b246	-0.047777437
56	0x3e0dadf0	0.13835883
57	0xbec70f96	-0.3887908
58	0x3e9feeff	0.31237027
59	0xbd884652	-0.066540375
60	0x3e13730d	0.14399357
61	0xbe7033eb	-0.23457305
62	0xbef0959c	-0.46989143
63	0x3db507e8	0.088393986
64	0x3e95171c	0.29119194
65	0x3ea57e55	0.32322946
66	0xbdcd69e6	-0.10029964
67	0xbc809fed	-0.015701259
68	0x3d028347	0.031863477
69	0xbe22df11	-0.15905406
70	0xbe887759	-0.26653555
71	0xbdbd737a	-0.09250541
72	0xbe78a842	-0.24282935
73	0xbd8bf8c8	-0.06834561
74	0xbe7ea1b4	-0.24866372
75	0x3d642ef8	0.055708855
76	0x3d0e760b	0.034780543
77	0x3d7ceb86	0.06174805
78	0xbebcb52f	-0.36856982
79	0xbe5b9384	-0.21442991
80	0xbe89f866	-0.26947325
81	0x3c7cff3a	0.01544171
82	0x3e32a65b	0.17446272
83	0xbd774cb7	-0.060375895
84	0x3d5f9a1b	0.054590326
85	0x3e03e171	0.12878968
86	0x3e24a8db	0.16080038
87	0xbecbf3bb	-0.3983439
88	0xbe0dcdd1	-0.13848044
89	0x3d9f266f	0.077710025
90	0xbd14d685	-0.036337394
91	0xbc5e244b	-0.013558458
92	0x3e451ef2	0.19250086
93	0xbeff91cb	-0.4991592
94	0x3e51720e	0.20453665
95	0xbdb01478	-0.08597654
96	0x3e328880	0.17434883
97	0xbe072f5d	-0.13201661
98	0x3ccb664c	0.024829052
99	0xbe05cf44	-0.13067347
100	0x3dbc8a3f	0.09206056
101	0xbc4df16a	-0.012569765
102	0xbdb041dd	-0.086063124
103	0xbeb64a08	-0.35603356
104	0x3d7db566	0.061940573
105	0xbe2e31d3	-0.17011194
106	0xbdf06a46	-0.1173902
107	0x3d3766a6	0.044775628
108	0xbd3b58db	-0.045739036
109	0xbe4f6957	-0.20255028
110	0xbcb3c2d3	-0.021943485
111	0x3db872b4	0.09006253
112	0xbda0bea5	-0.078488626
113	0xbe00239b	-0.12513582
114	0xbd862171	-0.06549347
115	0x3b21e1aa	0.0024701157
116	0xbea4c239	-0.3217943
117	0x3cb8793d	0.022518748
118	0x3d687ea8	0.056761414
119	0xbda073ba	-0.07834573
120	0xbe6474a1	-0.22310115
121	0xbd919323	-0.07108142
122	0x3daf32b5	0.085545935
123	0x3dcc420c	0.09973535
124	0x3e733f1a	0.2375454
125	0xbda7e726	-0.08198385
126	0xbdbbb370	-0.09165084
127	0xbc56631f	-0.013085156
128	0x3e6e4bd9	0.23271121
129	0x3e049a9d	0.12949605
130	0x3d745669	0.05965272
131	0xbc9b0dde	-0.01892751
132	0xbde16038	-0.110046804
133	0xbe696942	-0.22794059
134	0x3dfb109b	0.122590266
135	0x3e0a003d	0.13476653
136	0x3dcc61d7	0.09979599
137	0x3d7c1d37	0.0615513
138	0xbcf8f54b	-0.030390402
139	0x3d934575	0.07190982
140	0x3e93be9b	0.28856358
141	0xbd47d141	-0.048783544
142	0xbe719023	-0.2359014
143	0xbd7dd1b9	-0.061967585
144	0x3e2af74c	0.16695899
145	0x3d770586	0.060308002
146	0xbd97eead	-0.07418571
147	0x3e7fc95e	0.24979159
148	0x3ea1c690	0.31596804
149	0xbe00bf98	-0.12573087
150	0xbe7498ef	-0.23886465
151	0x3ebb8c7c	0.3663062
152	0xbdba2a6c	-0.090901226
153	0xbc66186a	-0.014043907
154	0xbeb6a8d0	-0.3567567
155	0xbd8b5b10	-0.06804478
156	0xbe4cba29	-0.1999289
157	0xbe90109d	-0.28137675
158	0xbe0867ee	-0.13320896
159	0xbe0fd266	-0.14045104
160	0x3e53311f	0.20624207
161	0xbd867841	-0.06565905
162	0x3e8eefd0	0.27917337
163	0xbde46c40	-0.111534595
164	0x3e0dec02	0.13859561
165	0x3e1ce82d	0.15322943
166	0xbd6f373d	-0.05840229
167	0x3eb1cea4	0.34727967
168	0x3d99e1e1	0.07513786
169	0x3dd7b0ab	0.105317436
170	0xbdbf80e0	-0.09350753
171	0xbdda475f	-0.10658144
172	0x3e4f38fe	0.20236585
173	0x3c921e42	0.017836694
174	0xbe5875ef	-0.21138738
175	0x3eab543e	0.3346271
176	0x3e7cea86	0.24698839
177	0x3d8f6154	0.07000986
178	0xbf02e447	-0.51129574
179	0xbd241bbc	-0.040065512
180	0xbeca98d7	-0.39569733
181	0xbd4a056a	-0.04932157
182	0x3dade248	0.08490425
183	0xbe21f7d6	-0.15817198
184	0x3ebaf1a7	0.3651249
185	0x3ebb07ee	0.36529487
186	0xbd6a49fb	-0.05719946
187	0xbd1a58d8	-0.037682384
188	0x3e36fa87	0.17869006
189	0xbe90e5e7	-0.28300402
190	0xbb8f2562	-0.00436847
191	0x3dc401c4	0.09570649
192	0xbf04964b	-0.5179183
193	0xbd1994ab	-0.037495296
194	0xbd883147	-0.06650024
195	0xbd062b37	-0.032756057
196	0x3e15c64b	0.14626424
197	0x3c8a6c42	0.016897324
198	0xbd4e374b	-0.0503457
199	0x3da5e715	0.08100716
200	0x3cd38820	0.025821745
201	0x3d8fdd19	0.07024593
202	0xbe366f7b	-0.17815964
203	0xbd902d56	-0.07039897
204	0xbd416a5f	-0.047220584
205	0xbc085a8b	-0.008322368
206	0xbebafd13	-0.36521205
207	0x3caa5039	0.020790206
208	0x3e7f6242	0.24939826
209	0xbdceecc9	-0.10103757
210	0xbeb71e84	-0.3576547
211	0xbe2d46a9	-0.16921486
212	0x3cf7d554	0.03025309
213	0x3de9337f	0.11386775
214	0xbddfb3aa	-0.1092294
215	0xbe8defe3	-0.27722082
216	0xbc5c2a42	-0.013437809
217	0x3d040f9b	0.032241445
218	0x3d5c92df	0.053851005
219	0x3c3aa1f2	0.01139115
220	0x3d1f3b9f	0.03887522
221	0xbde36a19	-0.11104221
222	0x3d469d21	0.048489694
223	0xbd8c1bf0	-0.06841266
224	0x3e06363b	0.13106625
225	0xbd0544a0	-0.03253615
226	0x3dad199f	0.084521525
227	0x3d4dbaab	0.05022685
228	0x3d09ff9f	0.033691045
229	0xbecc704c	-0.39929426
230	0x3dcbfac4	0.09959939
231	0xbe7ad68b	-0.24495904
232	0x3d56a19d	0.05240022
233	0x3de61d1e	0.112360224
234	0xbdcf16a9	-0.10111744
235	0xbcfa88f4	-0.030582882
236	0x3c2697c4	0.01016802
237	0xbcc56515	-0.024096051
238	0x3df848a1	0.12123228
239	0xbe73f702	-0.23824695
240	0xbde28563	-0.11060598
241	0x3b21c085	0.00246814
242	0x3e3e8760	0.18606329
243	0x3e927e73	0.28612098
244	0x3dbcbb0e	0.09215365
245	0x3e24b356	0.16084036
246	0xbdee6c6f	-0.11641776
247	0xbcb96f12	-0.02263597
248	0xbd6e0847	-0.058113363
249	0xbdec8ffd	-0.11550901
250	0xbd78e6b1	-0.06076688
251	0x3cd37a77	0.025815232
252	0x3d464537	0.048405852
253	0xbe579364	-0.21052319
254	0xbe093f63	-0.13403086
255	0xbd5364ea	-0.05160991

weights_out.bias f4 [8]
0	0x3d5f5f1e	0.05453407
1	0xbe2db02e	-0.16961738
2	0x3b34de70	0.0027598403
3	0xbe576f73	-0.21038608
4	0x3e406d89	0.18791784
5	0x3cb77e1c	0.022399
6	0xbd7e5d2f	-0.062100586
7	0xbd29f23a	-0.04149077
