EDA/Notebooks/deep_learning_models/DR_models/CNN/cnn_hybrid_model.pth (torch, 255637 bytes, 9 tensors)

conv1.weight f4 [64, 14, 3]
00000000: f3b6 a9bd 220d a03d 41e0 19bd 7cb2 543c
00000010: e249 41bc 4637 4cbb d952 c03d 5a7b 0c3e
00000020: 5899 c2bd b51f 4ebe 85b2 67be ae78 77be
00000030: e039 dfbd 3e62 a6bd 7684 0d3d e7ce 883d
00000040: 5b76 313e fc85 263e 4293 0ebe a47b d13d
00000050: c220 e7bd ea19 be3d e816 f9bc f661 a0bd
00000060: 74d6 b93d 42ae 18be d9e7 ffbc 5747 8abd
00000070: ff7b 79bd 718e d43d 47b3 2ebc f822 92bc
00000080: d3d7 a2bd 0b29 4cbd bd95 973c 09d4 03be
00000090: 9712 383d 6482 103d 63e1 973d 02e8 c6bd
000000a0: 8898 893d 5ec7 913d 5989 fd3d 54ca 19be
000000b0: ba3e 15be 3e3b 1e38 ec0a 30bc 3694 873d
000000c0: fba9 e5bd bdbd 4d3c 2959 313c 4370 45bd
000000d0: 283d 963d 1211 2e3d f4fb 973d e8fd b73d
000000e0: 0c65 6ebd 02a7 353e 2d7c 073d ef51 3a3c
000000f0: ba3b 30be 513d 2b3c 025c 40be 234c e53d
00000100: cc34 38bd 0a04 183e 0ecc 31bc a7a9 b63b
00000110: 1227 e4bd a8cd 063d 5a49 523c 31e6 f63c
00000120: df3b bdbd e47c db3d 80bd dfbd 762f 01bd
00000130: ed24 82bd 78e4 10be bb61 a3bc b3a8 c1bc
00000140: 90b9 58be 7aaa fb3c 1e92 da3d 8eff 07be
00000150: d7c7 86bc 4376 fb3c 89a5 82bd 7c28 5dbd
00000160: 533f 6cbd 9560 11bc 266a 263e fdc3 b7bd
00000170: 6a02 c83d 740f 97bd 660c 393d 0278 9cbc
00000180: e45a c5bd fc7d 053d be95 a73d 0eaf 48bd
00000190: e45f 1cbd 0168 233e 6840 773e c55e 1e3e
000001a0: 97d5 423e 9e51 76bd 63a7 f13c 1e11 ee3d
000001b0: 2e75 0e3e bb82 05be 491d d1bd 770a cb3b
000001c0: dd4a 093d f89a 4bbd afaf 423c 1645 35be
000001d0: bad6 14be d5b3 873d e371 16be 54e1 a13c
000001e0: f6c9 3e3d 8e2a 1ebe eece c9bd 4ade 4b3e
000001f0: 6f2c 3f3c 1b7c 68bd 3101 b63d 78c0 e23d
00000200: 4ff8 85bd fcb9 afbd 88bf 143e b168 723d
00000210: 1017 423d a7f2 003d 4e25 373d f285 7b3c
00000220: b13f b23c d32b a53d e6e8 b33c a62c 58bb
00000230: b82e 653d 97c4 293e ddd4 263e 0f95 993d
00000240: cf14 593d c9eb 8abd e19e e0bd 4f20 02be
00000250: 327e 363d 6eac a13c 8869 ab3c b3a9 25be
00000260: 2c78 9dbd 7fa1 84bc 2f16 f3bd 2ceb dfbd
00000270: 99df 3abc a473 9b3d 3894 04be 55f9 0a3e
00000280: 579f bcbd fb88 d43d 46c7 293c 8ae9 1dbd
00000290: 8b80 d73d 1ba8 113d df2c dbbd bd60 fc3d
000002a0: 758c 9abd 4feb c2bd 94fe 103d 1d88 b7bc
000002b0: 6b8b 863d d411 11be 0ca4 3c3d 71e9 e83d
000002c0: 6730 063e 8f2f d13b 9661 58bd 60f4 d2bd
000002d0: c71e b0bd e636 463d 27ba 203e a657 03be
000002e0: b58b a73d 2326 d73d 2500 12be 20fd f4bd
000002f0: c497 03be a119 cebd 088a 253d 02c7 c33d
00000300: 7a5b 56bd 9b92 90bd f994 2e3e d672 36bc
00000310: 4096 233e ce12 d9bd dfb0 113d 77b8 3abd
00000320: 7383 bcbd 0691 31be 52ef 0bbe 1dd8 553d
00000330: 0e54 a1bd f8a7 f13c 6ccb 20be d9aa ad3d
00000340: a29a 783d a6bf 02be 8809 0ebe 229c b43c
00000350: aa27 123e b54b 5f3d e23f 6ebd d798 b73d
00000360: 1735 d0bd dd68 d53d 351c 963d e363 99bd
00000370: 6a12 003e a440 ab3d b8b5 953d ee6e 423e
00000380: ffb6 c13d d148 9f3d 2b7a 803d 48bc 03bd
00000390: fe45 dc3d bd3d 91bd d2f0 473c 08a4 41bd
000003a0: 5c99 67bd 7291 323d e918 963d 118c 963b
000003b0: 0ec9 e53d ab27 97bd c06f 28bd d15a 203e
000003c0: 0bcd 633d 5f78 85bd ffa5 493d c880 5f3d
000003d0: 5cf0 863c 0acd 04be caa1 12bd a460 183e
000003e0: f9ca fa3d 239b 8cbd 8a11 853d e523 ac3d
000003f0: cf11 d7bd 0736 9bbd 7dd4 aabd 2277 eabd
-0.08286848 0.07815005 -0.03756738 0.012982007 -0.0117974 -0.0031160875 0.09390802 0.1371893
-0.09501904 -0.20129283 -0.22626694 -0.2416713 -0.10899711 -0.08124207 0.034550153 0.066800885
0.17330305 0.16262048 -0.13923362 0.10228661 -0.11285545 0.092822865 -0.03040643 -0.078311846
0.09074107 -0.14910224 -0.031238483 -0.06751888 -0.060909268 0.10378731 -0.01066286 -0.01783894
-0.079513215 -0.04984383 0.018504018 -0.12873854 0.044939604 0.0352806 0.07416036 -0.09712221
0.06718546 0.071181044 0.123797126 -0.15018588 -0.1457471 3.772531e-05 -0.0107447915 0.06620066
-0.11214062 0.012557444 0.01082448 -0.048202764 0.073358834 0.04249675 0.07421103 0.08983976
-0.058201835 0.1773949 0.033077408 0.011372074 -0.17210284 0.010451631 -0.18785098 0.111961626
-0.044972226 0.14845291 -0.010851873 0.0055744234 -0.111402646 0.032910973 0.012834871 0.03013906
-0.09239935 0.1071718 -0.10924816 -0.031539403 -0.06354699 -0.14149654 -0.019944062 -0.023640012
-0.21164536 0.030720938 0.10672401 -0.1328108 -0.016452713 0.03069604 -0.063792296 -0.053993687
-0.05767758 -0.008873125 0.1625143 -0.08972929 0.097660854 -0.07375994 0.04517784 -0.019100193
-0.09636477 0.03259085 0.08182858 -0.04899507 -0.038177386 0.15957643 0.24145663 0.15465839
0.1902679 -0.06013643 0.029498762 0.116243586 0.13911888 -0.13038151 -0.10210664 0.006196316
0.03351866 -0.049708337 0.011882707 -0.17702135 -0.14535037 0.06626097 -0.14691882 0.019760765
0.046579324 -0.15445921 -0.09853922 0.19909015 0.011668309 -0.05675898 0.08886946 0.11071867
-0.06541502 -0.085803956 0.14526188 0.059181873 0.047385275 0.03148141 0.04471331 0.015351759
0.021758886 0.080649994 0.02196164 -0.0032985597 0.055952758 0.165789 0.16292138 0.07499134
0.05299836 -0.06783254 -0.10967804 -0.12707637 0.044553943 0.019735541 0.020924345 -0.16178016
-0.076889366 -0.016190289 -0.118694656 -0.10933527 -0.011405849 0.07590416 -0.12947166 0.13571675
-0.09210079 0.103776895 0.010362452 -0.0385528 0.105225645 0.03556071 -0.10701918 0.12323139
-0.07546321 -0.09517538 0.035399035 -0.022403771 0.065695606 -0.14166957 0.046054885 0.113726504
0.13104402 0.0063838433 -0.05282744 -0.10300517 -0.0859962 0.0483922 0.15696011 -0.12826404
0.08180944 0.10505321 -0.14257868 -0.11962342 -0.12850863 -0.10063482 0.04041484 0.09559442
-0.052333333 -0.07059213 0.17049016 -0.011135777 0.15975285 -0.1059929 0.035569068 -0.045586076
-0.092047594 -0.17340478 -0.13665512 0.052208055 -0.0787736 0.029499039 -0.157026 0.08479852
0.060694344 -0.1276842 -0.13870823 0.022047106 0.14272943 0.05451556 -0.058166392 0.08964699
-0.10166376 0.10420392 0.07329599 -0.07489755 0.12507024 0.083619386 0.07310051 0.18987629
0.09458732 0.077775605 0.06273302 -0.03216198 0.107555375 -0.07091854 0.012203412 -0.047275573
-0.05654274 0.04359574 0.0732897 0.004594334 0.11219989 -0.07380613 -0.041122198 0.15659644
0.055615466 -0.065170996 0.04923057 0.054566175 0.016472034 -0.12968841 -0.035798825 0.14880615
0.12245745 -0.068655275 0.06497486 0.08405284 -0.105014436 -0.07578664 -0.0834131 -0.11448504

conv1.bias f4 [64]
00000000: da90 14be f35c be3b c277 e8bd 20a8 123e
00000010: c985 adbd a530 32bd 142b 173d bf8c 2abe
00000020: fa0c 12bc e677 98bd eceb 0f3e 05e6 be3c
00000030: 30bc d3bd f714 f8bd 179a f1bd 0c74 dfbd
00000040: 6013 b9bd 6fd5 f1bb 5708 3a3d 3d0a cbbd
00000050: a8f3 f03c 4419 f33d 2f7c 7fbd 8eca c93d
00000060: 7d3a e8bb cbdc 2cbe 14b6 1cbe c70d 91bd
00000070: 9bb9 723d 9bec bc3c 7e40 fbbd 617b 5c3d
00000080: 8df8 593c 0329 e03c 53b7 14be dad1 61bd
00000090: 33ad b13d 6773 4ebe d964 4abe dd6b 0ebd
000000a0: 739b 2cbe 6bb6 323d 4a24 a13c 1098 023d
000000b0: 1aba f3bc ccc3 14be a98d 0fbd bb04 83bd
000000c0: 6e5d bebd 7e0c bfbd 4fc1 dd3d 1343 65bd
000000d0: 5fd0 d4bd 06ac 30be b44b febd 3710 25be
000000e0: f3ab 01be fa51 b3bc 6e80 c2bd 8e7e 963b
000000f0: 748c c53b bac8 7dbd 537e e43d 0294 70bd
-0.14508381 0.0058094203 -0.11350967 0.14321947 -0.08472783 -0.043503422 0.036906317 -0.16655253
-0.008914227 -0.07444744 0.14054841 0.023303041 -0.10338628 -0.12113374 -0.117969684 -0.10910806
-0.090368986 -0.0073801796 0.04541811 -0.09914062 0.02941306 0.118700534 -0.06237429 0.09853087
-0.0070870505 -0.16881101 -0.15303832 -0.07082706 0.05925904 0.023062041 -0.1226816 0.0538286
0.013303888 0.027363306 -0.14523058 -0.05513177 0.08675613 -0.2016121 -0.19765033 -0.034770835
-0.16856174 0.043631 0.019670624 0.0318833 -0.029751826 -0.14527816 -0.035047207 -0.06397387
-0.09295164 -0.093285546 0.10827886 -0.05597217 -0.10391306 -0.17253122 -0.12416783 -0.16119467
-0.1266325 -0.021889675 -0.09497152 0.004592723 0.006028706 -0.061959006 0.11156907 -0.0587349

conv2.weight f4 [32, 64, 3]
00000000: 5db2 16bd d072 44bd 99dd 4c3c e5f0 f5bc
00000010: dc4b 69bd 0c0d 643d a43b 3d3d a053 a8bc
00000020: 0657 8a3b c027 313d 8ba6 0abd 52f3 ed3c
00000030: f6d9 3f3d 27d3 49bd d461 a93c 1e3b 4dbc
00000040: a665 adbd 281f ffbc 47fb 083d 5093 adbd
00000050: 8258 b2bd 926e d1bc cf49 3b3c 64fd 47bd
00000060: f35f 96bd 9a35 a2bd 0c21 623d 560d 853c
00000070: 63b7 24bd 3999 1ebd 7c13 333d 577d 57bb
00000080: 74a2 ccba 669d 13bd 771d 66bd b053 093d
00000090: e070 023d 6b99 a4bd 940e 9cbd d00e 073d
000000a0: 9d21 4d3d f412 1d3d ac62 e13c e266 23bd
000000b0: e44d 053d 5de7 1dbd 828e c03b fc26 80bd
000000c0: 2530 fcbb 0205 053d 4692 3fbd ed75 64bd
000000d0: e607 8abd 60f7 0f3c 3df1 66bb 11ff 83bd
000000e0: f1bf 2abd de55 e1bc 6a23 413d 7333 a93d
000000f0: a7c7 44bd 22ef d53c 5386 a3bd 617e 9f3d
00000100: f2dc 1b3d cd39 583c 024c 383d a49a 743c
00000110: 2661 0bbc 80e8 c53b 6de4 40bd 131a 53bd
00000120: 2c13 78bd 7145 85ba afa4 723d 51d5 793d
00000130: f009 b0bb 54de daba 998b 6f3d 55ba 073d
00000140: a662 663d a88a 903c db1d 6b3d 1607 bfbc
00000150: 778f 88bd 78e0 46bd 1143 0bbd 8d28 2a3d
00000160: 95ea 8dbd d468 29bb 9b65 f4ba 3d8c c9ba
00000170: f165 973c 066b 333d a53b 8abd 7973 9dbd
00000180: 0b5c a7bd 66aa 603d 350a 68bd f3ea 5ebd
00000190: d2a3 3d3d df42 403d 24c2 123d fd5d cc3b
000001a0: 769b 57bb b540 bebc a89a c03c 285b 9ebc
000001b0: e0b3 24bd 6ad1 98bd cdea 94bd 34d3 6a3d
000001c0: 7c39 55bd 8a9d 3b3d 9184 8b3c 92d1 343c
000001d0: 1586 7ebd 55ce 42bb c9c6 53bc 71c9 6f3d
000001e0: f85e 303c 6d70 843c f8f8 2abd c294 1a3d
000001f0: f060 33bd 3704 9fbd 3d06 9abd c953 97bd
00000200: ffbf 86bd d998 ce3b cd77 a73c d49d b1bb
00000210: b939 91bc 8764 193d ffe5 0abd 805f 86bc
00000220: d73a ca3c f83e f43c 3977 703d a631 a13d
00000230: e8f5 a5bb ef2c 213d eddb 933c 7b5c 8cbd
00000240: a8a5 b9bc 3d78 aebc c484 69bd 7e66 cfbc
00000250: 0092 3fbb 6374 433c 7b85 9abc 16b7 41bd
00000260: a4f0 4e3b f0e8 e63b 2a17 843d 6314 463d
00000270: 0fd5 d5bc 150f a4bc 4912 89bd 3d0d 4abc
00000280: 5b44 ddbc 21ca 37bd 238e 9abd df43 f83c
00000290: 5a01 763d 50d8 c1bc 2bc0 90bd 0fc5 72bc
000002a0: e38e e13a 07b4 0abc 0ba8 3fbd 5d8d 8bbd
000002b0: fad9 c2bc 44df 763d 349a 1c3d 2d26 56bd
000002c0: bde7 163d ec98 953c 8652 1d3d 4e33 cd3c
000002d0: b6b2 c23c ac5c 82bd 207d ba3c 38ff 0aba
000002e0: 6542 0fbd 4be1 a7bd bce7 1a3d 5935 9cbc
000002f0: c5cf 1ebd 66c3 163c c0dc 79bd 2980 783d
00000300: 69cd 333d 6743 0a3d 921c 843d d457 7f3d
00000310: 819f c23c 783a 6d3b 8640 0bbd 0782 ec3a
00000320: d589 7a3d e3ad 0f3d 4e27 00bc e24f 693d
00000330: 8f6b f4bc 592f acbc 0f89 62bd 15c2 9f3c
00000340: 4f8e 29bc fd4d 33bc 05e8 53bc dfd1 2ebd
00000350: 2cb4 463b b39a e9bc dd83 41bd ffab 60bd
00000360: 869a 74bb 9c09 1cbd 3d20 8b3b 5fe7 163d
00000370: 2b7e 2fbd 5a79 fa3c b823 6abc 405c 56bd
00000380: 88f5 473d ce6c 25bd b3a1 c03c 959b 19bd
00000390: 630a 6abd b50f 5dbd c062 0f3d 5bca 043d
000003a0: 065a abbc 582f 88bc 3e44 e43c 6adc 93bd
000003b0: 9146 6abb 1b24 abbd c378 07bd 7803 a33c
000003c0: 30e0 6b3d 429f 8ebd 0a4d f63c e255 133d
000003d0: 5df4 673c ec54 433c 8823 2ebd 6524 61bd
000003e0: 6658 09bd aafc 493d e1fc aabb b3ed b03c
000003f0: 7891 2ebc 3828 38bd 91b6 44bd 9866 90bc
-0.036791194 -0.047961056 0.012504005 -0.030022094 -0.05695711 0.055676505 0.046199456 -0.020547688
0.0042218 0.0432508 -0.033850234 0.029046688 0.046838723 -0.049273636 0.02067653 -0.012526302
-0.084666535 -0.031142786 0.03344276 -0.08475363 -0.08708288 -0.02556542 0.011431172 -0.048825637
-0.073425196 -0.0792038 0.055207297 0.01624171 -0.040213954 -0.038720343 0.043719754 -0.0032881105
-0.001561238 -0.03603878 -0.056180444 0.033527076 0.031845927 -0.08037075 -0.07619968 0.03297311
0.050080884 0.038348153 0.02751287 -0.03989304 0.032544985 -0.038550723 0.0058763633 -0.06257436
-0.007696169 0.03247548 -0.046770357 -0.055776525 -0.06739788 0.008787006 -0.0035239004 -0.064451344
-0.041686956 -0.027506765 0.047152914 0.08261766 -0.048041966 0.026115004 -0.07984605 0.07787777
0.038052507 0.0131973745 0.04499436 0.014929447 -0.008507049 0.006039679 -0.047092844 -0.05153854
-0.06056516 -0.001016779 0.059239086 0.06099445 -0.0053722784 -0.0016698339 0.05848274 0.033136684
0.056246422 0.017644241 0.05740152 -0.023318809 -0.06667989 -0.048553914 -0.033999506 0.04154258
-0.069295086 -0.0025849836 -0.0018646003 -0.0015376877 0.018481227 0.043803237 -0.067496575 -0.0768804
-0.08171853 0.054850005 -0.05665036 -0.054423284 0.04629881 0.046938773 0.03582968 0.00623679
-0.0032899058 -0.023224214 0.023511246 -0.019330576 -0.040210605 -0.074618176 -0.07271347 0.057330325
-0.052056774 0.045804538 0.017030986 0.011036294 -0.06213959 -0.0029725034 -0.012925812 0.05854172
0.01076483 0.01616689 -0.04174134 0.037739523 -0.04379362 -0.07764476 -0.07520721 -0.073890276
-0.06579589 0.006304842 0.020442868 -0.005420426 -0.01772772 0.037449386 -0.033910748 -0.01640296
0.02468626 0.029815182 0.05870745 0.07870798 -0.0050647147 0.039349493 0.018049205 -0.06853577
-0.022661999 -0.021297568 -0.05701138 -0.025317427 -0.002923131 0.011929604 -0.018862477 -0.047293745
0.0031576538 0.0070468113 0.06449731 0.048359286 -0.02610257 -0.020026723 -0.06692941 -0.012332258
-0.027010133 -0.0448705 -0.07546642 0.030305801 0.060059883 -0.023662716 -0.07067903 -0.01481749
0.0017208721 -0.008465773 -0.046791118 -0.06814072 -0.02378558 0.060271516 0.038232997 -0.0522825
0.036842097 0.018261395 0.03840878 0.025048878 0.023766857 -0.06365332 0.022764742 -0.0005302313
-0.034975428 -0.08197268 0.037818655 -0.019068407 -0.038772363 0.00920186 -0.06100154 0.060669098
0.043897066 0.033755686 0.06450762 0.06233962 0.023757698 0.003619818 -0.03399708 0.0018044122
0.061166603 0.03507794 -0.007821871 0.056960948 -0.029836444 -0.02101867 -0.05530649 0.019501725
-0.01034887 -0.010943887 -0.012933736 -0.042680617 0.0030319793 -0.02851615 -0.047244895 -0.05485153
-0.0037323548 -0.0380951 0.0042457865 0.036841746 -0.042844933 0.030575443 -0.014290743 -0.05233407
0.04881814 -0.040386967 0.023514604 -0.03750189 -0.05713881 -0.053970058 0.035006285 0.032419544
-0.02091695 -0.016624138 0.027864572 -0.07219775 -0.0035747627 -0.08356496 -0.03307415 0.019899115
0.05758685 -0.0696397 0.030066032 0.035970576 0.014157382 0.011922102 -0.042514354 -0.05496635
-0.03353157 0.049313225 -0.005218134 0.021597719 -0.0106548 -0.04496023 -0.04802567 -0.017627046

conv2.bias f4 [32]
00000000: 230f d5bc 71ca cdbc 1c60 a73c 7353 49bd
00000010: bb97 2cbd 6763 81bd d167 74bd 95b4 e8bc
00000020: 3020 72bd 1057 04bd f251 d4bd 0abc 6fbd
00000030: 3ee1 1c3d 51cc 9cbd 7099 15bd bc6a 2b3d
00000040: abcd 06bd 426c 353d c9f2 00bd 11cb 7abd
00000050: 5da6 35bd d8cd 853c b84b 3d3d cfa4 813c
00000060: fc0a 4d3a 9dbe 7c3d a81b b93b 9506 44bc
00000070: a36c 113d 6e5d 93bd 6f16 bfbc 0cb9 2bbd
-0.026008194 -0.025120946 0.02043157 -0.04915185 -0.04213689 -0.063177876 -0.05966932 -0.02840642
-0.059112728 -0.03230959 -0.10367192 -0.058528937 0.038300745 -0.07656158 -0.036523283 0.041849837
-0.032910984 0.044292696 -0.031481538 -0.061228815 -0.04434811 0.016333506 0.04621479 0.015825657
0.0007821766 0.06170522 0.005649049 -0.01196446 0.035503995 -0.07195555 -0.023326127 -0.04192452

fc1.weight f4 [64, 832]
00000000: 5b44 cabb 5db0 c83c ba42 01bd c57b 36bc
00000010: 6830 ca3c 62a2 a2bc f6a3 f0bb 7957 07bc
00000020: 2aae c43b 0d64 823c a26d acbc 9384 313c
00000030: 6400 bf3c b6e1 923b d781 a1bc 5113 8cbb
00000040: 476b 0e3d ee5d 063d 514e 40bc 1be0 babb
00000050: 7a75 8a3c 0cc0 6bbc eb77 4bbb d1d1 d7bc
00000060: 9305 c73c 087b 47bc 9fbf 203a a4e2 cebb
00000070: efea f9bc 1b62 d5ba d451 fabb d862 bdbc
00000080: eb45 a13b 404c f7bc fd90 d8bb 1f2d e0bc
00000090: a0d2 9dbc 3798 b63c 5427 4d3c 62f3 90bb
000000a0: 2ac9 24bb 3565 6ebc 6776 ffbc 3188 1c3d
000000b0: 8dbb 86bb d857 05bb ddfd 36ba 9c43 4e3c
000000c0: 88d4 c2bc ed9c c7bc 2613 23bc d6cf dcbc
000000d0: 4c25 da3b eaf2 8f39 6974 88bc ae29 3cbd
000000e0: 9722 7dbc b4f1 8abd 44cf cabd ea3a 8cbb
000000f0: 0d57 4e3c 3728 c9bc abba edbc c893 71bc
00000100: 39dc bebc db4b 45bd 828b 6cbd 2b22 15bd
00000110: 86e6 13bd f4ff f9bc cbbb 13bd 7dc8 a3bb
00000120: 7a2f 02bd 920d aa3c efcf 04bd d329 0cbd
00000130: 7c80 993b 10b5 c6ba 2f2a 953c 9afa 3cbb
00000140: beed e33c 2ded aebc 20f9 a4bc 9a71 003c
00000150: c74d 8cbc 71cc 913c c343 a7bc f6c8 ffbc
00000160: 8648 dc3a 9c18 e1ba f598 a3bc 12a4 7b3c
00000170: ff23 ae3c 64d0 233c 40fc 2e3c e7d5 de39
00000180: ea1a 693c a3ec 8a3a d534 cd3c 4cdd a4bb
00000190: 160d 10bd b509 1fbd f6c4 20bc 37d1 cdbc
000001a0: b5c1 373b d219 23bd fd04 e4bb 6d35 f7bc
000001b0: 2202 13bd 34c2 b43c 720e 1cbc 9ed1 8f3c
000001c0: 7ee4 00bb d7a0 e1ba 0986 ca3c 24d1 2b3b
000001d0: 41a8 c1bb 2696 463c 141a d13c 5c6d e7bc
000001e0: a331 163c 3899 15bd c14b c2bb ffdb 2f3c
000001f0: c9e1 0cbc da49 8a3c ced3 d4bc 1bb9 16bb
00000200: 7939 813c 38c2 af3c 6baa 15bd 6ae9 cfbc
00000210: f900 c03b d2ee 13bc f291 fbbb b6b8 b0bc
00000220: 9349 bb3b fd43 a03c 8ae1 55ba f8bc 023d
00000230: 5b54 cbbc 5cb4 2abd e5e0 97bc 19bd c23c
00000240: d049 4fbc 8cb2 0bbd 3f16 413a dcaa a7bb
00000250: aa0f 383c 1e07 9f3c 91d5 71ba 0d5c 693c
00000260: be84 c43c 0437 efbc 97b6 0b3c 0084 c1ba
00000270: 9de3 e2bb 33c4 b83c 2150 b23b ff25 d8bc
00000280: d519 6b3b d40d babc ca07 febb 819e 22bc
00000290: ac11 31bd bd68 dd3c 56b2 0dbd 9a00 e43a
000002a0: 0e19 a93c faae 9c3a 7a74 08bd f131 0fbd
000002b0: de95 18bd 9383 0bbd 1612 923c 6136 5d3c
000002c0: f076 2ebc 5bef 5e3b 1586 0cbc 4dc3 5b3b
000002d0: 1384 9fbc f07d d83c 61a3 f8bc 689f 0abc
000002e0: 8a1a 2abc 8f50 2bbb aa95 263c 4281 783d
000002f0: b4bd be3c bcd1 633d d9f0 263d 4fdb 903d
00000300: c67f 9a3b dcce 273d 80e4 08bc 1d98 893c
00000310: 2823 08bc bc12 ad3a eec1 e5bc 67c1 15bd
00000320: d665 96bd 7e56 06bd 14b5 4cbd 0abf 9abd
00000330: 792f efbd 9494 09be b5b5 58bd 0c49 8dbd
00000340: 3b8a 6c3b 9c8c d2bc 73e5 e4bc 0b92 f7ba
00000350: 42fc 01bd ed03 cb3c e890 66bc fd3e 82bc
00000360: 6d3b 8f3c 6ac8 123d 81cd eb3b 4c59 7cbb
00000370: d743 85bc fc6f 0dbd 28dc 34bc a44c c3bc
00000380: 3f5a 9abc 4975 da3c cc3a a7bc 99ed dcbc
00000390: c91d 25bd 69a8 0ebc eb04 8e3c fb99 1e3c
000003a0: afc8 5b3c cb0e a5ba 8ab7 edbc f504 eebc
000003b0: 05a0 e63b e2d4 cf3b b64a 09bd e9e5 3ebd
000003c0: 392b f0bc be6b 15bc 504c 73bc aa48 f33c
000003d0: a7c4 7e3c d757 4a3b aaf4 a5bc b52f ec3a
000003e0: 560c ce3c 8b61 e63c 4168 3ebd d515 343c
000003f0: 7aad c3bc f034 2a3a 6400 d53c e19a 07bd
-0.0061726994 0.024498159 -0.031557776 -0.011137907 0.024681285 -0.01985282 -0.0073437644 -0.008260601
0.0060022073 0.015916849 -0.02104837 0.010834831 0.023315616 0.0044824732 -0.019715233 -0.0042747636
0.034770276 0.032804422 -0.011737422 -0.005702985 0.01690172 -0.014389049 -0.0031046818 -0.026345165
0.02429465 -0.012175329 0.00061320694 -0.0063136388 -0.030507533 -0.0016279848 -0.007639149 -0.023118421
0.004921665 -0.030187726 -0.006609081 -0.027365265 -0.019265473 0.022289379 0.012521584 -0.0044235447
-0.0025144317 -0.014550497 -0.031184388 0.03821582 -0.0041117133 -0.0020346548 -0.00069805776 0.0125893615
-0.023782983 -0.02436682 -0.009953296 -0.026954573 0.006657278 0.0002745607 -0.016657071 -0.045938186
-0.015450141 -0.067843825 -0.09902814 -0.004279484 0.012593997 -0.024555309 -0.029019674 -0.014744706
-0.02329837 -0.048168045 -0.057750233 -0.03640954 -0.036108516 -0.030517556 -0.036067765 -0.0049982653
-0.03178356 0.020758424 -0.032424863 -0.034219574 0.004684506 -0.0015160162 0.018208591 -0.0028835894
0.027823325 -0.021353329 -0.020138323 0.007839585 -0.01712693 0.01779768 -0.020418053 -0.031223755
0.0016806282 -0.0017173472 -0.019970397 0.015358942 0.021257399 0.009998415 0.010680258 0.0004250251
0.014227608 0.0010599088 0.025049606 -0.0050312635 -0.03516873 -0.038827617 -0.009812584 -0.025124175
0.0028039042 -0.039819546 -0.0069586025 -0.030176843 -0.035890706 0.02206526 -0.009524928 0.017556008
-0.0019667442 -0.0017214072 0.024722116 0.0026217187 -0.00590995 0.012120759 0.02552513 -0.028250389
0.009167108 -0.036523074 -0.0059294407 0.0107336035 -0.008598753 0.016880918 -0.025979903 -0.0022998515
0.015774475 0.021454915 -0.036539476 -0.025379855 0.005859491 -0.009029107 -0.00767731 -0.021572452
0.005715558 0.01956367 -0.0008158913 0.031918496 -0.024820497 -0.04167591 -0.018539855 0.02377181
-0.012651876 -0.034105822 0.00073656806 -0.0051168036 0.011234203 0.019412573 -0.0009225244 0.014243138
0.023989078 -0.029201038 0.0085274195 -0.001476407 -0.0069241063 0.022554493 0.005441681 -0.026385305
0.0035873551 -0.022711672 -0.0077523934 -0.009925486 -0.043229744 0.027027482 -0.034593903 0.0017395199
0.02064183 0.0011954003 -0.033314206 -0.034959737 -0.0372523 -0.034061026 0.01783089 0.0135017345
-0.010648474 0.0034017179 -0.0085768895 0.0033533156 -0.019472158 0.02642724 -0.030351343 -0.008460857
-0.010382304 -0.0026140546 0.010167519 0.060670145 0.023283817 0.05561994 0.040757034 0.0707308
0.004714939 0.04096876 -0.00835526 0.016796166 -0.008309163 0.0013204436 -0.028046574 -0.036561396
-0.073436424 -0.03279733 -0.049977377 -0.07555969 -0.116789766 -0.13435584 -0.052907664 -0.06898698
0.0036093134 -0.025701813 -0.027941441 -0.0018888129 -0.031734712 0.024782145 -0.014072634 -0.015899176
0.017484391 0.03583566 0.007196129 -0.0038505374 -0.0162677 -0.034530625 -0.011038817 -0.023840256
-0.01884186 0.026667254 -0.020413779 -0.026968764 -0.04031161 -0.008707144 0.01733633 0.0096802665
0.013414546 -0.001259291 -0.029018182 -0.029055098 0.007038119 0.0063425163 -0.033518516 -0.04660598
-0.029317485 -0.009119926 -0.014849737 0.029697735 0.015549815 0.003087511 -0.020258266 0.0018019589
0.025152367 0.028122684 -0.046486143 0.010991533 -0.023886431 0.00064928737 0.026001163 -0.03310669

fc1.bias f4 [64]
00000000: 4af2 b33c db8d 9f3d 38c8 643d 1437 783c
00000010: ebbe b13d d44b cc3c 649c aabb b634 1cbd
00000020: 1422 1b3e 3c33 26bd 5c99 11bd 0851 c03d
00000030: 0946 913d 1d0d df3c 33cc 2d3e e137 f23b
00000040: 70a0 9c3c 5dfa 5dbb 1890 19bd 2068 1ebc
00000050: fe61 a13d f40c b9bc 2b8e f83a 67ae 923d
00000060: 2e9c e2bc bfb8 f23d d4e9 19bc b02f bc3c
00000070: 2c83 d83b d93b 393c 4700 283d 67ae 973d
00000080: ceaa 953d 0f24 083d cb67 823d 883b 423d
00000090: bbd4 c73d c892 2c3d 1c38 a33c bde2 9f3d
000000a0: 56b1 533b d22d 753b 988f 3dbc 0d74 5d3e
000000b0: 9082 2b3a b942 d13d e120 583e 40d9 cdbc
000000c0: 1ed9 dbbc 318d 1e3e 48f2 613b 03d9 1fbd
000000d0: 67a6 d63d c2b0 7c3e 1470 e73d 75cf 0f3e
000000e0: a501 cb3c e98a 383e a316 883c 90d2 8cbc
000000f0: ef1c 953d c45f a33d 8631 05bc 8f7c d23d
0.021966118 0.07790729 0.055855006 0.01514985 0.08678993 0.024938501 -0.0052066315 -0.038136207
0.15149719 -0.040576205 -0.035546646 0.093904555 0.07093436 0.027227933 0.16972427 0.007391915
0.019119471 -0.0033871152 -0.037490934 -0.00966838 0.07880019 -0.022589184 0.0018963268 0.07162171
-0.027662363 0.11851644 -0.009394128 0.022971958 0.006607434 0.011305773 0.04101589 0.074063115
0.07307969 0.033237513 0.06367453 0.047420055 0.09757372 0.04213217 0.019924216 0.07806919
0.0032301745 0.0037411344 -0.01156988 0.21626301 0.00065425877 0.102178045 0.21106292 -0.025128007
-0.026836928 0.15483548 0.0034476686 -0.039025318 0.104809575 0.24676803 0.11300674 0.14043982
0.024781058 0.1802174 0.016612357 -0.017190248 0.07280909 0.0797725 -0.008129483 0.10277664

sharpe_out.weight f4 [1, 64]
00000000: a7b8 15bd c30a b03c 03b6 0ebd b5ea e6bc
00000010: 4872 cb3a 6d65 f03c 4f5f aabd ff06 2fbd
00000020: 669c 89bd d9e1 4e3b c054 bf3d 7d3c cebc
00000030: 5f3a 33bd 7dfa f3bc 12ad f73a 41ff f7bb
00000040: 9ec2 1ebd e242 413d 1f9f 41bc b457 b03d
00000050: 6932 3b3d 9399 c7bc dbd5 823d 93ef 40bd
00000060: eba8 913d 581c 8cba 58a4 a3bb 726d ffbc
00000070: 2df1 983d 9a08 bdbd 10ba b33c c646 7abd
00000080: 257f 40bd e026 033d eb5f 3c3d efe3 f43c
00000090: a895 cdbc 4afe b43c cbff 68bd f72b 45bc
000000a0: 55d8 82bd 823f ab3d a033 00bc 8ee6 373c
000000b0: a3bc a9bc 60fe e83c cea3 e13c bb2f c2bd
000000c0: 2b11 543d 6cd5 acbc 55e3 a63a 31e8 62bc
000000d0: aedc 0bbb 56e5 c6b7 5543 12bc 4934 38bb
000000e0: 49bc dc3d d663 9f3b 23bf 563d 1c86 86bd
000000f0: f8f4 0bbb b58c 34bc 1b41 f93c b915 9dbc
-0.03655305 0.021489507 -0.03484155 -0.028188089 0.0015521729 0.029345239 -0.0831896 -0.04273128
-0.06719284 0.003156772 0.09342337 -0.025175327 -0.04375684 -0.029782528 0.0018896183 -0.0075682704
-0.03875982 0.047182925 -0.011817723 0.08610478 0.04570237 -0.024365222 0.06388446 -0.047103476
0.07112297 -0.00106896 -0.0049939565 -0.031180117 0.07467876 -0.09230156 0.021939307 -0.06110265
-0.046996254 0.032019496 0.045989912 0.029893843 -0.025095776 0.02209391 -0.05688457 -0.012034408
-0.06388918 0.083617225 -0.007824808 0.011224402 -0.020719832 0.028441608 0.027543928 -0.0948176
0.051774185 -0.021097861 0.0012732545 -0.013849304 -0.0021341252 -2.3710232e-05 -0.008927186 -0.0028107336
0.107781 0.0048641963 0.052428376 -0.06568548 -0.002135573 -0.011019875 0.030426553 -0.019175397

weights_out.weight f4 [8, 64]
00000000: ef3a 10bf db6e 7f3e d032 23be 4a25 75be
00000010: 1079 66be 72b7 8abc 53e5 bebd 810e 9ebd
00000020: b283 00bf 92cf 29bc db15 26be 4846 bfbe
00000030: be08 c2be 0e43 f1bc 5fdb 5a3e c575 453d
00000040: 0e58 d9bd 514b 83bd 1303 ffbd cf25 593e
00000050: 7289 343e 1def 593e fc33 1ebe 4035 513e
00000060: f8ee 063e bcdb 353e 85cf 19be 2701 b1be
00000070: 5444 e03d 358d 483c ee1f 54be ed88 b9be
00000080: d0ce 383e 4968 253e cba7 343d 3170 9dbc
00000090: 17a9 a93e c2ce 4d3d 50b0 9ebe 498d bdbe
000000a0: 7fe5 7f3e d84a 6e3e dca4 82be b979 a93d
000000b0: b7dc 643e da6a d63d 893b 073e d013 7e3d
000000c0: bdf1 173e b9d4 bb3e 5f1d 9bbd 32c0 1fbc
000000d0: f7bc 46bd 007b 623e 42c7 2cbf a652 0fbf
000000e0: be34 523d 40a4 e73d e8f3 e83b 8e47 7ebe
000000f0: 5961 f8bd d57e 11bc 86a3 02be 7313 bfbe
00000100: 4a42 5ebe 3319 e8bd bfae 423e 0b74 c4be
00000110: 4788 22be bde2 903d f435 7fba d92f 87bc
00000120: ff74 7bbe e0e4 c83d 46e4 bb3e f5ef 5b3e
00000130: a8a2 5cbc 652a 4f3e 32c2 5dbe 08ba 0ebe
00000140: 06b1 863e b07a 663e db3a 3bbd 5a3e aabd
00000150: c5d1 20bd 9a7b aabd 2e1b 1c3e 8be4 6ebc
00000160: 1afb 173a 3a48 b4bd 137b f1be 1cd5 f53d
00000170: dd82 babd 60a6 533d 7712 1dbe 07ec 8abe
00000180: 5e86 643d 1601 a4bd 05b4 97bd 19c4 d43c
00000190: a635 5cbe ae5c b7bd 3910 98be a180 aebc
000001a0: 663d 623e ad8e 19bc 78fa c83d b559 82be
000001b0: e8f7 bcbc c031 97bd aa8b 7cbe 973f 993d
000001c0: cdfb a2bd fa32 943d 3850 b43e 767f 403e
000001d0: bdb1 98be 1d8b 88bd 9fbd 56bc f294 24be
000001e0: b5fd 1dbe 5221 18be ffa5 fabe 9e2a dd3c
000001f0: 7e2f df3d 438e f53d c7c8 76be 6026 393d
00000200: 1af2 a13e 11d8 25be 535d 8c3e a3dc a43d
00000210: b03e 1f3e 0af6 2c3b 325a e83d bfdd 2fbd
00000220: e09c 333e fe3b 9b3d 725c 5dbe 04af ae3e
00000230: f2fb 8f3c 207c 34bd 22ec 283e 8af0 95be
00000240: 1a56 513e 3fac 54bd 6135 ae3e 730f ce3c
00000250: 9c28 3f3d c4d3 303e 8d2f e9be b129 433e
00000260: 7f96 603d 753d 3dbd 4e06 53be dd38 72bc
00000270: f211 f43d 95c5 e4bd 970c 413e c468 0fbe
00000280: 1d4c 053d dbd2 f9bc 6534 a93d 1945 61be
00000290: 1414 9abd db2b 4f3e 06b3 dcbe 9479 1e3e
000002a0: e71f 253e df37 3fbd 2473 a4be 7c3f 81be
000002b0: 042a 9fbd 3c59 333e 4668 c93e 47cc 0ebd
000002c0: b1d8 1bbd c182 c5bd 4a3f cf3d 0d3c 1e3f
000002d0: 508a 03be 8c76 08be 83a5 903d d360 1f3e
000002e0: 0d92 b1bd 67a1 96bd 389b 553e 71f5 7cbd
000002f0: b743 9b3e aab6 f9be 1208 303e 0ca8 ef3c
00000300: 3200 a13e 6409 cdbd 8cee 20be 5ab3 ce3d
00000310: ee80 e23c 26af c7bd 4a29 833c b48b 0dbe
00000320: c3b3 86be 495a 973d d60d 903e 2852 89be
00000330: d6b8 9b3e af77 f53d 72f9 82be 59bb 513e
00000340: 82e1 893d 3f66 55bd 1dbc 42be 23ce 8abd
00000350: 2a9f 3b3d ac54 7bbe 3891 a23e 6a61 02bf
00000360: 3fab 96bd cc07 d53d 796a 88be ec2d 013e
00000370: e5b3 f0bd 5f88 bbbd 9715 e2bd da4c 8f3d
00000380: 7473 d1bc 5a3a 313e e7e7 cebd c92f 883e
00000390: 5867 8cbd eeb4 0ebd d50f 04be 65a8 fdbd
000003a0: b2f3 aa3e 32b6 1fbc e997 0f3e 4b9b 09bd
000003b0: 69e9 a43d 0237 97bc 4f91 933b 42a6 473d
000003c0: f6b3 20bd a4f9 65be 9a1f 10bd 2598 55be
000003d0: cc46 3abd e48e 43bd 879d 8f3b 6d5b 533d
000003e0: 629d c83c 7a05 29be 56c9 36be 6fd7 a33d
000003f0: 2c8b a5bd d253 38bd 398e a6bd 1bf2 623d
-0.56339926 0.24944632 -0.15937352 -0.23940006 -0.22507119 -0.016933177 -0.09321084 -0.0771761
-0.5020095 -0.01036443 -0.16219275 -0.37358308 -0.37897295 -0.02945092 0.21372746 0.048208017
-0.10612498 -0.0641085 -0.12451758 0.21205829 0.17630556 0.2128262 -0.15449518 0.2043047
0.13177097 0.17759603 -0.15020569 -0.34571192 0.109505326 0.012240698 -0.20715305 -0.3623728
0.18047643 0.16153063 0.044105332 -0.019218536 0.33136818 0.050246008 -0.3099389 -0.37021855
0.2498989 0.23270738 -0.25516403 0.0827517 0.22349821 0.10469599 0.13206305 0.062030613
0.1483831 0.36685732 -0.075739615 -0.009750413 -0.048520055 0.22117233 -0.67491543 -0.55985487
0.05131983 0.11310625 0.007109154 -0.24831983 -0.121279426 -0.008880337 -0.12757692 -0.37319526
-0.21704975 -0.11332931 0.19011973 -0.38369784 -0.15872298 0.07074497 -0.00097355177 -0.016502308
-0.24556349 0.098092794 0.36697596 0.21478255 -0.013466515 0.20231016 -0.21656111 -0.13938153
0.26306933 0.22507739 -0.045710426 -0.08312674 -0.03926255 -0.083243564 0.15244743 -0.014580856
0.000579761 -0.088028386 -0.4716421 0.12003538 -0.091069914 0.05167234 -0.15339075 -0.271332
0.055792205 -0.080080196 -0.07407383 0.025972413 -0.2150484 -0.08953224 -0.29699877 -0.02130157
0.22093734 -0.009372395 0.09813398 -0.25459066 -0.02306743 -0.07382536 -0.24662653 0.07482832
-0.079581834 0.072362855 0.35217452 0.18798622 -0.29823104 -0.06667159 -0.013106733 -0.16072443
-0.15428813 -0.1485646 -0.4895477 0.02699786 0.1089773 0.11990025 -0.24100028 0.045202613
0.3163002 -0.16195704 0.2741495 0.080498956 0.15551257 0.0026391768 0.113453284 -0.042936083
0.17540312 0.07579802 -0.21617296 0.341179 0.017576192 -0.044063687 0.16496328 -0.2928508
0.20443001 -0.05192208 0.340251 0.025153851 0.046669587 0.17268282 -0.4554409 0.19058873
0.054831024 -0.046201188 -0.20607874 -0.014784065 0.11917485 -0.11170498 0.18852459 -0.14004809
0.03254329 -0.030496052 0.082619466 -0.21999015 -0.07523361 0.20231573 -0.43105334 0.15476066
0.16125451 -0.046684142 -0.32119095 -0.25243747 -0.07771686 0.17514509 0.39337367 -0.034862783
-0.03804845 -0.0964408 0.10119493 0.6181038 -0.12845731 -0.13326472 0.07062819 0.1556428
-0.08670435 -0.07355004 0.20859993 -0.06175751 0.303251 -0.48772174 0.17190579 0.029254936
0.31445462 -0.10011557 -0.15715998 0.10092802 0.02764937 -0.09750204 0.0160109 -0.13822824
-0.26309022 0.073902674 0.28135556 -0.26820493 0.30414456 0.119857185 -0.25580937 0.20481624
0.06732465 -0.052099463 -0.19017072 -0.06777599 0.045806088 -0.24544019 0.31751418 -0.5092989
-0.07356881 0.10401878 -0.26643732 0.12615174 -0.11753062 -0.0915687 -0.11039274 0.0699708
-0.025567748 0.17307416 -0.101028256 0.26598957 -0.06855649 -0.034840517 -0.12896664 -0.12385634
0.3338905 -0.009748029 0.14022793 -0.033595365 0.08052332 -0.018458847 0.004503406 0.04874254
-0.039234124 -0.22458512 -0.035186388 -0.2085882 -0.045477673 -0.047743693 0.0043827924 0.051600862
0.024489108 -0.16505995 -0.17850241 0.08000075 -0.080831856 -0.045001812 -0.081325956 0.05540667

weights_out.bias f4 [8]
00000000: de4f 683d 0bed 6fbe 5ca4 9b3d 5fd5 71be
00000010: 41ed 443e d181 c5bd c7a3 98ba ca8d 39bc
0.056716792 -0.23430268 0.075997084 -0.23616551 0.1923113 -0.09643901 -0.0011645489 -0.011325309
