EDA/Notebooks/deep_learning_models/Without_DR/cnn_portfolio_model_new.pth (torch, 781053 bytes, 4 tensors)

conv.weight f4 [8, 1, 3, 1]
0.32133132 -0.21541712 -0.41151345 0.024352532 0.08836584 0.27197915 0.34251747 0.33953547
-0.40664393 0.044909406 -0.50246537 0.4760236 -0.081155814 0.414057 0.39970425 -0.22653195
0.4883139 -0.41419676 0.2217662 -0.2643301 0.20217523 -0.47365972 -0.2778701 0.15083359
00000000: 8a85 a43e 4e96 5cbe e4b1 d2be f67e c73c
00000010: 26f9 b43d da40 8b3e 735e af3e 98d7 ad3e
00000020: a233 d0be edf2 373d 92a1 00bf 5eb9 f33e
00000030: 0535 a6bd 47ff d33e 09a6 cc3e fef7 67be
00000040: 4804 fa3e 9911 d4be ae16 633e 4656 87be
00000050: 0607 4f3e 8783 f2be fd44 8ebe 1f74 1a3e

conv.bias f4 [8]
-0.21817763 -0.34435946 0.20747368 -0.15984492 -0.39624107 0.061013818 0.15395539 0.3697749
00000000: f569 5fbe e24f b0be fb73 543e 63ae 23be
00000010: 1ce0 cabe a0e9 793d 7ba6 1d3e 2353 bd3e

fc.weight f4 [8, 24320]
0.0034834275 0.00068062835 -0.0054937704 0.0048121163 -0.0037368624 -0.0014487255 -0.0041385395 0.0052146134
-0.00028576603 -0.0032539924 -0.0046520047 -0.0011192816 -0.0021360426 0.0014774965 -0.0010249829 0.0039904797
0.001604039 -0.005553667 0.0023406292 0.005996291 0.0010957728 0.005507844 -0.0005442425 -0.0028789842
-0.0016039052 -0.0007211996 0.0022252128 -0.0001077005 0.005410158 0.0006907729 0.0024993606 0.003053937
0.0047575883 -0.00442185 -0.0034851038 -0.006289718 0.0032312986 -0.006376113 0.0005868157 -0.002872005
-0.0015167674 -0.0035119378 -0.00064622134 0.0005223344 -0.0027163606 -0.0011780368 -0.004147468 0.0012914382
-0.0021378596 -0.005676018 0.0058845775 -0.005375233 0.00010469789 0.0028770764 -0.0031224408 -0.000338217
-0.005860413 0.0055834698 -0.00012582321 0.00033431087 0.001469075 -0.00050863303 0.0061041187 -0.0061969687
0.0057554455 -0.0013488381 -0.0050223307 -0.004972964 -0.0035223162 0.00014379763 0.0046164524 0.0062749344
-0.0016806524 -0.0058350223 0.0019980245 0.0031487457 0.0055211876 -0.0034368837 -2.6859194e-05 -0.005391553
-0.005150428 0.0038204473 0.0029040533 -0.005935754 -0.006133708 0.004733011 0.0035919962 -0.0055550514
0.00458485 0.0006521486 -0.001062654 -0.0062790164 -0.003785639 0.0019919497 0.003742942 -0.005896157
-0.005222522 0.006006672 -0.0040000593 0.0051014856 0.0048254407 -0.0051201796 -0.0047354647 0.0021754946
-0.0029636223 0.0036927315 -0.002832586 0.00277333 -0.0034868557 -0.003892893 0.0008326289 -0.0031691075
0.0012246117 0.0035324898 -0.0049697077 -0.0018581063 -0.0047140024 0.005293481 -0.0005433711 0.005836065
-0.001318257 -0.002736344 0.0031836717 0.006329779 0.005222538 0.00052822573 -0.00034587109 0.00069593725
0.004044201 0.004859231 0.0061493595 -0.0002045081 0.0040555205 0.003955685 -0.0049517415 0.0012363003
0.00013726113 -0.004332763 0.0020066448 -0.0032139954 -0.000334265 -0.00011960089 -0.0042872853 0.0055044577
-0.0012960194 -0.0027307621 -0.0012598175 -0.0007908751 -0.004484393 0.004550468 0.0018677663 -0.0034768924
0.0038169394 0.0008283742 0.005348563 -0.0053791553 4.74609e-05 -0.0028541249 0.0025209826 0.004816939
0.0022139018 -0.0037444073 -0.0015918481 0.0015983464 -0.003342159 0.005079629 0.0040428587 0.0004719129
-0.0054800347 0.005442012 -0.0021567114 -0.0017317954 -0.0062028696 0.0023679195 -0.0062878034 0.00443974
-0.0054931673 0.002990999 -0.0009681984 0.0046100705 -0.0025257543 0.0052674687 0.00046688612 0.0059821024
-0.0059872353 -3.753652e-05 -0.0002443134 0.005544344 0.0020144258 -0.00023283115 0.005556571 -6.250303e-05
0.0007302136 -0.0045939144 -0.00024870498 0.0051317574 0.005622842 0.005227068 -0.0054581068 -0.0028324644
0.0061023245 -0.0015996429 0.004834025 0.0022963774 0.0027859323 -0.0009138027 -0.006210517 -0.0011169525
-0.002362308 -0.0056740656 0.0020687412 0.0011453634 0.005206042 0.004383795 -0.00285525 0.0063982834
-0.00041727646 -0.0056956843 0.0053943098 0.005074688 -0.0028615624 0.0034429517 0.0010607727 0.0046270746
0.002781569 0.0003801061 0.0017427257 0.0020264043 0.0051308386 -0.003958105 0.0010027598 -0.002207882
-0.0033794893 -0.005434244 -0.0040404494 -0.0033791247 -0.0041730665 -0.0034088427 -0.003227215 0.0008536457
0.0011587047 -0.0063862195 -0.0053287973 -0.00016348816 -0.0037135486 0.002652715 -0.0040500066 -0.004409007
-0.005655273 -0.0024520059 0.004513927 0.0018071658 0.0049799066 0.002402134 0.0014694472 -0.005007809
00000000: 374a 643b 326c 323a 1605 b4bb f5ae 9d3b
00000010: 26e6 74bb 29e3 bdba 969c 87bb 59df aa3b
00000020: ded2 95b9 ef40 55bb d86f 98bb dcb4 92ba
00000030: d9fc 0bbb 8ea8 c13a b858 86ba 92c2 823b
00000040: 9e3e d23a 89fb b5bb 3e65 193b 897c c43b
00000050: 09a0 8f3a 257b b43b 7fab 0eba 57ad 3cbb
00000060: 213a d2ba e30e 3dba e0d4 113b 44dd e1b8
00000070: b247 b13b fc14 353a 50cc 233b 9024 483b
00000080: 8be5 9b3b 2be5 90bb 5766 64bb fb19 cebb
00000090: 32c4 533b b6ee d0bb 89d4 193a 4038 3cbb
000000a0: 45ce c6ba 8a28 66bb 2e67 29ba 45ed 083a
000000b0: f804 32bb 5b68 9aba 7ce7 87bb 7a45 a93a
000000c0: 551b 0cbb e4fd b9bb 6ad3 c03b b922 b0bb
000000d0: 4091 db38 558d 3c3b dda1 4cbb b852 b1b9
000000e0: b508 c0bb 8af5 b63b 69ef 03b9 7246 af39
000000f0: fa8d c03a c955 05ba 0f05 c83b f10f cbbb
00000100: 2d98 bc3b 7fcb b0ba 5d92 a4bb 3ff4 a2bb
00000110: a9d6 66bb 62c8 1639 9c45 973b f79d cd3b
00000120: 5649 dcba b733 bfbb 4af1 023b 305b 4e3b
00000130: 14eb b43b 573d 61bb ae4f e1b7 a0ab b0bb
00000140: ecc4 a8bb 7860 7a3b ee51 3e3b b780 c2bb
00000150: 46fd c8bb 6017 9b3b b267 6b3b 2607 b6bb
00000160: 823c 963b f4f4 2a3a c048 8bba 35c0 cdbb
00000170: 7c18 78bb 5f8b 023b 254c 753b 8d34 c1bb
00000180: b121 abbb 9ed3 c43b ee12 83bb 5d2a a73b
00000190: bb1e 9e3b 2ec7 a7bb f52b 9bbb be92 0e3b
000001a0: 5539 42bb c101 723b e8a2 39bb c2c0 353b
000001b0: bb83 64bb e81f 7fbb c844 5a3a cdb0 4fbb
000001c0: 2683 a03a 5881 673b eed8 a2bb b48b f3ba
000001d0: eb77 9abb f074 ad3b 0471 0eba 763c bf3b
000001e0: 5dc9 acba 3c54 33bb 26a5 503b 096a cf3b
000001f0: d321 ab3b a178 0a3a 0856 b5b9 8f6f 363a
00000200: 3885 843b 2f3a 9f3b 9180 c93b 3a71 56b9
00000210: 2ce4 843b b19e 813b 3842 a2bb 5b0b a23a
00000220: c1ed 0f39 daf9 8dbb ea81 033b e5a1 52bb
00000230: 4a40 afb9 3dd2 fab8 5b7c 8cbb bd5e b43b
00000240: 32df a9ba 96f6 32bb 7620 a5ba bb52 4fba
00000250: d1f1 92bb 181c 953b d6cf f43a 93dc 63bb
00000260: 9e25 7a3b 4027 593a 0043 af3b a043 b0bb
00000270: c110 4738 450c 3bbb 1237 253b 6ad7 9d3b
00000280: 1c17 113b bb64 75bb 8fa5 d0ba 9b7f d13a
00000290: 2008 5bbb 0473 a63b f579 843b 146b f739
000002a0: dd91 b3bb e852 b23b 9d57 0dbb 69fd e2ba
000002b0: 7141 cbbb 192f 1b3b eb09 cebb 3d7b 913b
000002c0: 0700 b4bb a304 443b b2ce 7dba 1310 973b
000002d0: 2087 25bb bb9a ac3b 65c8 f439 8305 c43b
000002e0: 9230 c4bb 8870 1db8 3117 80b9 54ad b53b
000002f0: 7504 043b 2324 74b9 e513 b63b 0f14 83b8
00000300: ce6b 3f3a 8c88 96bb 9e64 82b9 4d28 a83b
00000310: d13f b83b d347 ab3b ebd9 b2bb dea0 39bb
00000320: 02f6 c73b 1cab d1ba be66 9e3b d27e 163b
00000330: 3094 363b 438c 6fba 9881 cbbb b566 92ba
00000340: f4d0 1abb 83ed b9bb b893 073b 0520 963a
00000350: 7297 aa3b f0a5 8f3b 251f 3bbb b1a8 d13b
00000360: e6c5 dab9 dda2 babb c0c2 b03b 9149 a63b
00000370: 0d89 3bbb 25a3 613b a009 8b3a b79e 973b
00000380: fc4a 363b fa48 c739 2c6c e43a 6ccd 043b
00000390: 9820 a83b feb2 81bb 096f 833a 1db2 10bb
000003a0: 6c7a 5dbb be11 b2bb bf65 84bb 4e74 5dbb
000003b0: 38be 88bb e466 5fbb af7f 53bb 31c7 5f3a
000003c0: aedf 973a 7e43 d1bb 319d aebb 056e 2bb9
000003d0: 025f 73bb 2cd9 2d3b ebb5 84bb 6e79 90bb
000003e0: de4f b9bb d5b1 20bb 90e9 933b 6cde ec3a
000003f0: 7c2e a33b 1f6d 1d3b 779a c03a 8c18 a4bb

fc.bias f4 [8]
-0.00038158067 0.004341344 -0.0059210216 0.0029519873 -0.0046949675 -0.0008687803 0.006118133 -0.005299939
00000000: e40e c8b9 d541 8e3b 2105 c2bb 2176 413b
00000010: 3ed8 99bb dcbe 63ba 9f7a c83b 1cab adbb
